actor_ckpt_1_.pth (torch_old, 49300 bytes, 10 tensors)

fc1.weight f4 [64, 48]
000000 b1 a9 d7 bd 4c e3 e8 3d a4 89 0f 3d c1 cb 3a bd
       -0.10530413 0.113714784 0.035043374 -0.04560447
000010 6a 0e 49 3e 62 d6 68 bd 89 f3 a1 3d b7 c2 3f bd
       0.19634405 -0.056845076 0.07907779 -0.046816554
000020 0b 36 fa bd 14 2d 5f ba 99 25 10 3d cb 4f 4d be
       -0.12217339 -0.0008513492 0.035192106 -0.2004997
000030 7d fa 26 3d 2a dc 76 3b 9f 5c 3f 3e 31 b7 dc 3c
       0.040766228 0.003766785 0.18687676 0.026942821
000040 90 93 a7 3d 44 20 84 3e d5 68 b2 3d 44 23 07 bd
       0.08182442 0.25805867 0.087114014 -0.032992616
000050 d9 8c 94 3c b3 2e 80 bd d2 2b bc bc a7 8f 2a be
       0.018133568 -0.06258907 -0.022970114 -0.16656362
000060 b5 ae e9 3d 9d 62 c3 3d 22 8e 4f 3c 8b 8a 02 be
       0.11410276 0.09540293 0.012668164 -0.12748162
000070 6d 76 81 be 35 7f c7 bd 92 b4 17 3d 2e d7 96 bd
       -0.25285664 -0.0974106 0.03703744 -0.07365261
000080 95 a5 c9 bd bf d5 6b bc 2f ee bf 3b 00 d6 75 3d
       -0.098460354 -0.014394223 0.005857251 0.06001854
000090 f5 4f 58 3d 65 71 ca 3d 93 ae da bd e9 36 0a 3e
       0.052810628 0.098849095 -0.10677829 0.13497509
0000a0 16 dc 94 3e 2c ef 9a bd 4a f0 ac bd 46 6c b3 bb
       0.29074162 -0.0756515 -0.08444269 -0.0054755537
0000b0 a9 08 f3 bc 5c 29 b0 bd bd 4c 0c be d4 aa 21 bc
       -0.029667215 -0.08601639 -0.13701148 -0.009867389
0000c0 6b 87 0e be 2b 18 1a 3c 42 87 5d bd 66 66 2c 3d
       -0.13918845 0.009405176 -0.05408407 0.042089842
0000d0 ff 6c 46 be 6c a7 98 3e 7c 2e b8 3a 2d 4b 16 bd
       -0.19377516 0.29815233 0.0014051939 -0.036692787
0000e0 c9 d8 92 3c 3d 50 13 3e 34 d5 03 3e c8 42 d2 3d
       0.017925637 0.14386077 0.128743 0.10266644
0000f0 b3 85 36 be 79 ee 46 3e ef 88 7d 3e e4 c9 bc 3d
       -0.1782444 0.19426908 0.24759267 0.09218195
000100 b4 16 15 3d 42 7d 5a 3e 41 61 2d be 24 9c 2f 3e
       0.036398605 0.21336845 -0.1693163 0.17149407
000110 34 f9 51 be 68 a1 81 bd ec c5 4e bb a4 36 ae ba
       -0.2050522 -0.06329614 -0.0031551076 -0.0013291431
000120 3a 83 91 bd b3 5e 8e bd f1 be 98 3b 89 86 5f 3e
       -0.071051076 -0.06951656 0.004661434 0.21828665
000130 bb 1e 38 3e b0 a1 56 3e bd 46 c9 3c b7 9c 65 3e
       0.17980473 0.20960116 0.024569863 0.22423063
000140 16 4a cc bd 07 ce 9e 3c 51 76 af bd 0d 4d a0 3e
       -0.09975068 0.01938535 -0.08567489 0.31308785
000150 b4 94 c5 3d 85 d5 1c 3d db 81 a2 bd 1b d7 61 3e
       0.096475035 0.038289566 -0.07934924 0.22054712
000160 65 c4 58 bd 7c e7 73 3e a8 47 59 3d 55 92 16 3e
       -0.05292167 0.23818773 0.053046852 0.14704259
000170 6c 1c 2f 3e ee 6b c8 bd 48 cd 99 3c ff 94 9a 3e
       0.17100686 -0.09786211 0.018774644 0.301918
000180 04 22 8f be ad 79 88 bd 33 d8 45 3d e2 11 9c bd
       -0.2795564 -0.06663833 0.048301887 -0.076205984
000190 e9 41 63 3d f8 4b 3e 3e 46 fb d8 3a c6 39 a9 3d
       0.05548278 0.18583667 0.0016554378 0.082629725
0001a0 d1 fa 51 3c 1c 7a 16 3e dd 74 32 bd b2 04 13 be
       0.012816147 0.14695019 -0.04356848 -0.1435726
0001b0 5f d1 a6 bd b0 88 3e 3c ea 10 d4 3d 8b 7f 29 be
       -0.08145403 0.0116292685 0.103547886 -0.1655256
0001c0 46 ce 0c 3e ae 9d 72 3e 9e b7 82 3e c4 f4 cf bc
       0.13750562 0.23692963 0.25530714 -0.025385268
0001d0 29 6e c8 bd 5b 60 81 be f6 f8 54 3c 77 96 10 3d
       -0.097866364 -0.25268826 0.01299881 0.035299744
0001e0 9f 50 9e be e4 e6 5b be 15 24 5e 3b c6 d6 2a 3e
       -0.30920884 -0.21474797 0.0033896018 0.16683492
0001f0 0b 21 53 3d 62 8f 51 3e ff 5e 44 bd 55 49 bf 3d
       0.051545184 0.20464852 -0.047942158 0.09340159
000200 4a 36 ed bd b8 e8 69 bd 25 c7 d7 bd 0b 79 82 3d
       -0.115826204 -0.057106704 -0.10536031 0.06370743
000210 7d 1e cb 3d 9c d9 c5 bc 6b 3a 93 3d ed fc 11 3e
       0.099179246 -0.024151616 0.07188877 0.1425664
000220 56 6d 1c be d8 1c f3 3d c6 e8 b7 bc e1 85 16 3d
       -0.15276083 0.11870736 -0.022449862 0.03674877
000230 76 e6 94 bd 81 56 30 be 9b 23 c0 bd 3c 28 c3 3d
       -0.072705194 -0.17220499 -0.09381791 0.095291585
000240 b2 b1 a7 bd ad d4 90 3e ce 21 38 3e 78 b7 0e be
       -0.081881896 0.2828726 0.17981645 -0.13937175
000250 a5 0a 05 bd 5e 9e 67 3d 9f fa 7e bd be dc 28 be
       -0.032480855 0.056547515 -0.06225073 -0.16490456
000260 0e ce 37 bd 84 63 40 3e 55 1c a7 bd 50 32 1b be
       -0.044874243 0.18787962 -0.08159701 -0.15155911
000270 16 20 dd 3c 4b 37 fb 3c dd d1 a4 bd 78 3b 30 be
       0.026992839 0.030666014 -0.08047841 -0.17210186
000280 0f c8 fb 3d c9 0a 99 3e c2 20 3b 3d eb 69 91 be
       0.122940175 0.2989104 0.045685537 -0.28401121
000290 0b bc e6 bd 96 35 2d be f3 db e8 3d ac 4c 9c be
       -0.11266335 -0.16914973 0.11370077 -0.30527246
0002a0 c7 52 6a bd c0 a7 f6 3d 8d d3 31 3d b9 2c d2 bd
       -0.05720785 0.120437145 0.04341464 -0.102624364
0002b0 ca 00 c6 bd 9c 61 a7 39 97 1e 41 bd b3 0e 6c bc
       -0.09668119 0.00031925447 -0.047148313 -0.014407801
0002c0 53 61 ad 3d 9c 7a 9f 3d 83 8d e0 3c ce 33 ec 3c
       0.08465829 0.07787058 0.027411228 0.028833296
0002d0 8a b3 49 bd 63 c3 c3 3b c2 31 19 bd bf b7 6a bc
       -0.049243487 0.0059742196 -0.03740097 -0.014326035
0002e0 7d a3 22 3e f6 cb fd 3d f0 a5 bc 3d 13 f7 ff bd
       0.15882678 0.12392418 0.092113376 -0.124982975
0002f0 30 20 17 bc 45 aa e2 bd a7 eb 43 bd 86 2c 8a bc
       -0.009223983 -0.110676326 -0.047832157 -0.016866934
000300 5d 07 a5 bd 33 f8 b2 bd fe e0 ba bc 77 01 f2 3d
       -0.08058045 -0.087387465 -0.022812363 0.11816686
000310 ee d8 db bd 5f 47 15 3d 68 26 dc 3d ef 70 d6 bc
       -0.107347354 0.036445018 0.10749513 -0.026176898
000320 93 70 dc ba a1 90 c8 bc 4d 41 4b 3e 32 23 fc 3d
       -0.0016818218 -0.024483027 0.19849129 0.123114005
000330 b1 66 91 3d 8f 9c 48 3c 30 8f ac 3d e0 7d cd 3a
       0.07099665 0.012244358 0.08425748 0.0015677772
000340 4a ee a7 bd fd c8 5d ba 5d fb fe bd c6 6f 98 3c
       -0.08199747 -0.00084604305 -0.124502875 0.018607985
000350 20 1a 09 bd ec ac b2 3c 67 76 03 be 28 41 63 3d
       -0.03347218 0.021810971 -0.12838136 0.05548206
000360 d8 61 df 3d 4a 97 36 bd cd e1 9a bd 0f 1b 15 3d
       0.10907334 -0.044577874 -0.07562599 0.03640276
000370 50 70 d2 3d f2 ca e8 3d 61 10 c1 bd 70 94 02 3e
       0.10275328 0.11366834 -0.09426952 0.12751937
000380 df c2 d7 3d f9 58 15 3e 68 cc ca 3d f0 3f ab bc
       0.105352156 0.14584722 0.09902269 -0.020904511
000390 b4 80 28 be 14 03 02 3e f4 e1 9c 3d d8 48 9d bd
       -0.16455346 0.12696487 0.07660285 -0.076799095
0003a0 84 65 47 bd 1e d9 f4 3d 79 3d a3 bd 22 61 26 be
       -0.048680797 0.11955474 -0.07970709 -0.1624799
0003b0 b6 67 9a bd fa 3d 79 3d 61 5a c7 3b 5a dc 22 bb
       -0.075393125 0.06085012 0.006083772 -0.0024850578
0003c0 b2 d9 0a be dd 2f f8 3d 95 d3 f1 bb 06 43 50 3d
       -0.13559607 0.12118504 -0.007379959 0.05084517
0003d0 68 a3 17 3d 83 2a 03 3c 8b fb c9 3d 4a 50 17 be
       0.03702107 0.008005741 0.09862431 -0.14776722
0003e0 54 d0 26 bc 28 66 80 3e 68 df a2 3d 9a e8 b7 bc
       -0.010181505 0.2507794 0.079527676 -0.02244978
0003f0 c0 25 69 3c 55 9f 24 3e ec 2d 9f 3d 26 fc 50 bd
       0.014230192 0.16076405 0.07772431 -0.051021717

fc1.bias f4 [64]
000000 6d 78 c4 3d 47 47 09 be 14 da c9 bd 49 95 23 3d
       0.09593282 -0.13406096 -0.09856048 0.03993729
000010 a3 ce 68 3b 7e 08 a8 3d 9e eb 7c 3d 0b 2d e7 3b
       0.0035523556 0.08204745 0.06174814 0.00705493
000020 2d 6b b4 3c 43 02 d8 3d b9 fa 0a be 42 50 4a bd
       0.022023762 0.105473064 -0.13572206 -0.049392946
000030 4b bc be 3d de 10 e7 bd 1c 45 8d 3d 5e 6b c4 3d
       0.09313258 -0.11282514 0.06897947 0.09590791
000040 4c f9 3d 3d 46 a4 c1 bd 2e 96 a5 bd 6b b0 08 3d
       0.046380326 -0.09455161 -0.08085285 0.03337137
000050 b6 e5 83 bd 37 72 68 3d 42 bd 29 3d 0e 1e d6 3c
       -0.06440298 0.05674955 0.041440256 0.026137378
000060 e5 ce 05 3e 9a 8a 0e be e0 e3 0d be 38 f4 c4 3d
       0.13067205 -0.1392006 -0.13856459 0.096168935
000070 70 7a 46 bd 96 f7 0c be 0b 84 45 bd 58 e6 e0 3d
       -0.04845661 -0.13766322 -0.04822163 0.109814346
000080 c8 a5 a6 bc 50 50 90 3d 4e 45 ac 3d 31 3d 35 bd
       -0.020342723 0.070465684 0.08411656 -0.04424781
000090 61 74 99 3d 6c 74 36 3d 24 e9 bc bd a3 55 ee bc
       0.07492901 0.044544622 -0.092241555 -0.02909357
0000a0 a8 4c b3 3d d3 f0 65 3d 71 84 a4 3c 9f 15 91 bc
       0.087548554 0.05613787 0.020082684 -0.017710505
0000b0 29 2d d0 bd ef b8 55 bd dc a4 bf 3d 4e 1a 00 bc
       -0.101648636 -0.05217832 0.09357616 -0.0078187715
0000c0 7b 30 b1 bd bd f5 9c 3c 8e ab f3 bd 97 f6 91 bc
       -0.08651825 0.019160146 -0.11897956 -0.017817779
0000d0 dc b2 c1 bb 28 bc 0b be cb c4 c6 bd 9c 4f c8 bd
       -0.0059112143 -0.13645995 -0.09705504 -0.09780809
0000e0 c3 89 cd bd 69 0d f1 3d 53 30 66 3d 4b 15 d1 bd
       -0.100360416 0.11770136 0.05619843 -0.102091394
0000f0 6c 03 7c bd 96 28 d9 3d 55 09 01 3e 02 26 67 3c
       -0.0615267 0.10603444 0.12601216 0.014108183

bn1.weight f4 [64]
000000 db ee 23 3f bc c1 bd 3e 26 90 52 3f 5f ff e9 3e
       0.6403634 0.3706187 0.82251203 0.45702645
000010 76 d7 13 3f d0 d3 df 3e 18 f0 32 3f a7 00 18 3f
       0.5775064 0.43716288 0.69897604 0.59375995
000020 d5 8f 0b 3f 9a f5 02 3f 45 e7 41 3f ec 73 8d 3e
       0.54516345 0.5115601 0.75743514 0.27627504
000030 9f 92 2e 3f bd ba 3c 3e d9 66 66 3f 96 dc 89 3f
       0.68192476 0.1843061 0.90000683 1.0770442
000040 62 b2 13 3f 8e f3 69 3f 94 7b 23 3f 90 c4 8e 3f
       0.57694066 0.9138726 0.6386044 1.1153736
000050 91 e0 41 3f 9d eb 5d 3f 01 25 18 3f 5e 93 13 3f
       0.75733286 0.8668764 0.59431463 0.5764674
000060 c4 ce 82 3e c8 4a b8 3e e5 92 75 3f 27 4d 76 3f
       0.25548375 0.35994554 0.9592727 0.96211475
000070 13 18 d1 3e a3 e0 a9 3e 21 ff 96 3f 9e cb 2f 3f
       0.4083868 0.33179197 1.1796609 0.6867007
000080 73 e1 ee 3e aa 51 df 3e 8f a1 1f 3f 05 8c 1e 3f
       0.4665638 0.43616992 0.62355894 0.619324
000090 9a 99 21 3f 17 65 6c 3f e4 b5 10 3e df 3f 41 3f
       0.63125 0.9234175 0.14131886 0.75488085
0000a0 50 ce d2 3e 75 c7 88 3f 80 20 7a 3f 04 9c 72 3f
       0.4117303 1.068587 0.9770584 0.9476931
0000b0 78 57 92 3e 1d ae 09 3f d1 c4 19 3f af 70 ce 3e
       0.28582358 0.537813 0.60065943 0.40320346
0000c0 d0 b2 3e 3f 0c 32 23 3f a4 96 41 3f b6 0f 69 3f
       0.74491596 0.6374824 0.75620484 0.910396
0000d0 21 9c a3 3e d5 39 45 3f 39 d8 a9 3e 96 38 a1 3f
       0.31955054 0.7704137 0.33172777 1.2595394
0000e0 b4 48 87 3f ab 3d 21 3f 38 03 7d 3e 83 c9 89 3f
       1.0569062 0.6298472 0.24708259 1.0764621
0000f0 21 1d bd 3e db 4f 90 3f e6 05 76 3f 6b 9b 4e 3f
       0.36936286 1.127437 0.9610275 0.807059

bn1.bias f4 [64]
000000 9d 21 b6 bd ff f6 3b 3d d8 88 2d 3b 13 8b 84 bd
       -0.0889313 0.04588985 0.002647927 -0.06471839
000010 02 c1 07 3e f1 b9 7d bd 2d ea d1 bd 8c db 9c 3b
       0.1325722 -0.061944906 -0.102497436 0.004786914
000020 83 83 c0 bd de 21 9f bd 76 98 15 3e 5f c2 e0 3b
       -0.09400084 -0.077701315 0.1460894 0.0068591083
000030 10 9f e9 3d bd 83 f6 bc 88 a2 e8 bb 19 28 06 3d
       0.11407292 -0.030092115 -0.0070994534 0.032753084
000040 66 7f a8 bc 1d b2 b8 bd 58 fe c6 bc 43 eb 69 3d
       -0.02056856 -0.090183474 -0.024291202 0.05710913
000050 b2 36 da 3d d9 65 e3 bd d7 ab 9e bd ea 84 00 3e
       0.106549636 -0.1110341 -0.077476196 0.12550703
000060 dd 9a fd bb b3 8d b7 bd 23 02 2d 3e a1 3c f8 bc
       -0.0077394084 -0.08962574 0.16895346 -0.030302348
000070 92 49 5f bd c9 1a 2d bd 7a 40 bb 3c be 6f bd bd
       -0.05451352 -0.042261872 0.022857893 -0.09249829
000080 b7 04 06 3d 72 fb 01 3e f9 db 5d bc 48 74 9c bd
       0.03271934 0.12693575 -0.013541215 -0.076393664
000090 91 5c 09 3e e6 ff 1e 3d 1e f5 0c 3e 92 fb 58 3d
       0.13414218 0.038818263 0.1376538 0.05297429
0000a0 30 9b cd bd 28 86 c6 3d 78 da 99 bd 5e 06 25 bd
       -0.10039365 0.09693557 -0.07512373 -0.040289275
0000b0 c1 8d bc bc 2c 94 07 be e9 35 66 bb 4b 1c 23 3d
       -0.023016812 -0.13240117 -0.0035127348 0.039821904
0000c0 28 12 00 be e3 ed d6 3d 4f 2f 5a bd df 6a d8 3b
       -0.12506926 0.10494592 -0.053267773 0.006604537
0000d0 e5 b3 3a 3d e1 bc c2 bd c5 8a b8 bd 56 57 88 3d
       0.045581717 -0.09508682 -0.09010843 0.06657283
0000e0 2b 6e 9c bd 60 bd d7 bb a9 a7 ce 3d f0 b6 2f 3e
       -0.076382 -0.0065838546 0.100905724 0.17159629
0000f0 49 c2 6c 3d 1b fd 3f bd cd b0 8e 3d ff 22 21 3e
       0.057802472 -0.04687224 0.06967316 0.15736006

bn1.running_mean f4 [64]
000000 02 fd 0b c0 af 5c 98 3f 34 44 66 40 08 43 14 c0
       -2.1873174 1.1903285 3.5979128 -2.3165913
000010 ac f2 b0 3e e7 3c e0 bf ab 16 32 bf 2b 4c 93 3f
       0.34560144 -1.7518586 -0.6956584 1.150762
000020 b3 ce 86 40 bd 76 08 3e 91 5b c1 3f 36 15 34 3f
       4.212732 0.13326545 1.5106069 0.70344865
000030 24 08 27 bf 7b c0 a8 c0 24 43 8b c0 bc bd a0 40
       -0.65246797 -5.273496 -4.351946 5.023161
000040 40 a5 79 40 fc fa 9e bf 50 0a 03 40 e2 25 3b 3f
       3.900711 -1.2420344 2.0475044 0.7310468
000050 23 6f f8 3e d0 37 0c 40 cc e9 e8 3f 4c cc ce 3f
       0.4852229 2.1909065 1.8196349 1.6156096
000060 fc e6 80 c0 e4 85 a6 40 c9 4c 45 c0 8b c1 92 40
       -4.0281963 5.203844 -3.0828116 4.586126
000070 80 9c ea be 5f 1c e1 3f f0 c3 15 40 fe 4d 9b bd
       -0.45822525 1.7586783 2.340084 -0.07583235
000080 a1 dd 9d 40 b7 37 72 bf 6a f7 a4 3f a4 20 2c bf
       4.9333043 -0.94616264 1.2888005 -0.67237306
000090 f3 1e 02 3f bc f2 37 40 e5 6e 14 c0 01 b0 31 3f
       0.50828475 2.8741903 -2.3192685 0.69409186
0000a0 0d 4c 46 3f 2d de 20 3b 60 30 0b bf 46 38 85 c0
       0.77459794 0.002454649 -0.5437069 -4.1631193
0000b0 71 e6 c4 be 7b 72 9f 40 17 77 be 40 03 dc ea 40
       -0.38457063 4.9827247 5.9520373 7.339357
0000c0 92 ee f5 bf 0a 31 ad 40 7b d1 e0 3f 80 6c 31 40
       -1.9213431 5.412236 1.7563928 2.7722473
0000d0 75 37 b0 40 e6 03 c6 40 60 03 f4 bf 80 f0 e7 40
       5.5067697 6.187976 -1.906353 7.248108
0000e0 e6 49 13 be dc 5f b7 3f 82 31 22 bf c6 be ab 40
       -0.14383659 1.4326129 -0.6335679 5.367038
0000f0 30 44 87 bf 7b 4b 6c 3f ed b6 e7 3f c2 4f ad bf
       -1.0567684 0.92302674 1.81027 -1.3539965

bn1.running_var f4 [64]
000000 4b 53 c3 41 5c 9d 40 43 bd fc 42 42 b6 cc 43 42
       24.41567 192.61469 48.746815 48.949913
000010 eb 30 4e 42 14 44 84 42 9f bd e7 41 ad 9c 24 42
       51.54777 66.132965 28.967588 41.153004
000020 ee 99 1a 42 94 c1 28 42 eb 49 d3 42 0d 97 45 42
       38.650322 42.18904 105.64437 49.39751
000030 71 1e 1e 42 ed 9e a3 42 1d 8f 08 42 4e 3f 13 43
       39.529728 81.8104 34.13976 147.24728
000040 9c 2d c8 42 83 8d 04 42 89 bc 81 42 91 ad 85 42
       100.08908 33.138195 64.86823 66.839
000050 8b de 5a 42 01 a9 17 43 2c b6 93 42 95 5f 28 43
       54.717327 151.66017 73.855804 168.37337
000060 48 fa 72 42 ed 25 02 42 ea 5c b2 42 11 76 ea 42
       60.744415 32.537037 89.18147 117.2306
000070 d6 55 b9 42 29 a3 28 43 e9 75 5c 42 6a 3f 29 42
       92.66765 168.63734 55.115147 42.311928
000080 5b 8a 32 42 96 69 0c 42 27 6d 0b 43 b4 e6 d1 41
       44.635113 35.10311 139.42638 26.237648
000090 a5 7e c6 42 c2 de 23 43 5d 96 88 42 2f 3a 19 43
       99.24735 163.87015 68.29368 153.22728
0000a0 cc 20 38 42 91 b4 a4 42 b4 07 6c 42 7b a1 53 42
       46.03203 82.35267 59.007523 52.907696
0000b0 9a 12 3d 42 60 ac 36 42 2b f5 0e 42 2f 3e 9a 42
       47.268166 45.668335 35.73942 77.12145
0000c0 92 c6 c0 41 74 74 17 42 72 b6 dc 42 9e 61 05 43
       24.096958 37.863724 110.35634 133.38132
0000d0 9d 80 6b 42 70 8f 19 42 14 19 d2 41 65 61 2c 42
       58.8756 38.390076 26.262245 43.09511
0000e0 9f 93 d9 42 9f 6b 01 43 5b 04 79 42 ab 54 17 42
       108.78832 129.4204 62.254253 37.832684
0000f0 d9 23 5c 42 a9 18 cd 41 a7 d6 b5 42 6a 6a 01 43
       55.035007 25.637041 90.91924 129.41568

fc2.weight f4 [128, 64]
000000 e8 ff 07 bd 0d e6 e4 3d 35 f4 1f 3e 88 cf c1 3d
       -0.033203036 0.11176691 0.15620501 0.094634116
000010 02 2e ab bd 64 6d 8b bc 45 99 1d bc 33 d6 ad 3c
       -0.08358385 -0.017019935 -0.009619062 0.021220302
000020 41 91 48 be 59 c1 b7 3c 65 4d 81 3e 66 e4 05 be
       -0.1958666 0.022431063 0.2525436 -0.13075408
000030 e0 bd 51 be 5c d1 7a 3c 14 c2 b8 bd 61 09 36 be
       -0.20482588 0.015308704 -0.090213925 -0.17777015
000040 d3 a7 28 bd 28 9d 0b bc 22 c7 f1 bc e5 18 3d bd
       -0.041175675 -0.008521356 -0.0295139 -0.04616632
000050 8e a7 5d 3e 79 45 06 be 1a 0b 89 3c 2a 3a b6 3e
       0.21645948 -0.13112439 0.016728926 0.3559125
000060 96 73 2f be a3 0c 6c bc c6 a5 de 3d b5 63 50 be
       -0.17133936 -0.01440731 0.108714625 -0.20350535
000070 93 5b 23 be a8 ba 25 3e 8a 01 60 bd 5a 56 0c be
       -0.15952902 0.16184485 -0.054688968 -0.13704816
000080 29 68 a9 3e 94 3d 32 3e 34 ea ef 3b 17 0a 85 bd
       0.3308728 0.17406303 0.0073216204 -0.06496065
000090 82 5d 49 3e c4 b3 43 3e c1 52 a8 3d 1b 15 32 3d
       0.19664577 0.19111544 0.08218909 0.04347716
0000a0 dd 5e 05 be fb 05 59 3e 1c bf 0c 3d 9b d8 7c 3d
       -0.13024469 0.21193688 0.034361944 0.06173001
0000b0 0a 76 96 3c a3 f7 0c be d7 e2 de 3d 8f 33 20 3e
       0.018366832 -0.13766341 0.1088311 0.15644668
0000c0 c2 f2 80 3d 5f e2 a6 3e 33 9e 8b 3e 17 21 46 bd
       0.062963024 0.32594582 0.27269134 -0.0483714
0000d0 ff 74 02 3e 46 ac 50 be 7d f4 be 3c a5 9f ad 3e
       0.12739943 -0.20378217 0.02330994 0.33910862
0000e0 a1 6f 1f 3e c2 a6 39 3e 43 c9 ac 3d 44 1c 92 3e
       0.15569927 0.1813002 0.08436825 0.2853719
0000f0 ee c3 81 be f0 87 2b 3e e8 36 b1 3d 45 e7 04 3e
       -0.25344795 0.16751075 0.08653051 0.12978847
000100 cb e4 55 3d 09 1a 24 3d 1b d2 22 3d 4f 37 2a bd
       0.052220147 0.04006389 0.039751153 -0.041556653
000110 82 78 ef 3d fe be a2 3d 34 b2 a5 3d a1 30 da 3c
       0.11692907 0.07946585 0.0809063 0.026634516
000120 66 30 eb 3d 19 2a 1a 3d a3 84 7e bd 07 33 f0 3d
       0.11483841 0.037637804 -0.06213821 0.11728483
000130 f4 d7 ae 3d a7 93 91 bc 0d 12 a5 bd 82 36 2d 3d
       0.085372835 -0.017770601 -0.080600835 0.04228831
000140 c4 e8 0b 3e 8b 8f bb bc ff af 5e bc 41 bd 2b 3e
       0.13663012 -0.022895595 -0.013591765 0.16771413
000150 4b d8 57 bd db 8d 4b 3d 1e 05 0b 3e 4e a6 27 be
       -0.052696507 0.04969583 0.13576171 -0.16372034
000160 f6 72 c7 3d 85 c9 c9 3d 8c e9 ec 3d b5 32 1d 3e
       0.09738724 0.0985289 0.11567983 0.15351374
000170 92 2d 84 bd 39 47 4b bd ee 45 4d 3e d5 e0 0d 3e
       -0.06454004 -0.04962847 0.20046207 0.13855298
000180 65 f0 86 be 47 38 c0 bc b6 57 85 bd bf 23 30 3e
       -0.2635528 -0.023464335 -0.0651087 0.17201136
000190 3f 5b a5 bd fb ad 74 bd db 58 ad 3c 3a df d0 3a
       -0.080740444 -0.059736233 0.021160534 0.0015935667
0001a0 c5 49 c5 3d 92 f6 9e 3c 24 11 a8 3d 53 a4 5e 3d
       0.09633211 0.019404683 0.08206394 0.05435593
0001b0 8d 9c 4f 3d d8 58 16 3e 4d 30 b7 bd e6 61 05 bd
       0.050686408 0.14682329 -0.089447595 -0.032564066
0001c0 66 77 28 bc a7 ab 20 be de 58 b7 bd d0 42 2c 3e
       -0.010282373 -0.1569048 -0.08952497 0.16822362
0001d0 1d 72 56 bd 35 4f 52 3e 96 a4 9c 3c 9e 00 61 be
       -0.05235492 0.20538028 0.01912145 -0.21972892
0001e0 4a 17 bc bd e8 2a fb bc 3f 6a 9c 3d bc 59 47 bd
       -0.091841295 -0.030660108 0.07637452 -0.04866956
0001f0 4b 2e 51 3d bd 55 57 3c 73 f5 0c bc 1c 26 e5 3d
       0.05106954 0.013143 -0.0086034415 0.111889094
000200 57 82 8d 3d 3e 82 9a 3d 63 95 de bc b4 21 10 3e
       0.06909626 0.07544373 -0.027170843 0.14075357
000210 eb 25 85 3d d4 dc 4f 3c 74 dc 41 3d 21 88 01 3e
       0.06501373 0.012686927 0.04732938 0.12649585
000220 04 4f 84 3d fa f0 29 bd 97 ea c8 3d ec 8c 3d 3d
       0.064603835 -0.04148958 0.098103695 0.04627697
000230 f7 94 07 3e f3 cf 04 bc e2 52 6d 3d 41 54 8b 3c
       0.1324042 -0.00810622 0.05794037 0.017007949
000240 96 ca 38 3d 31 39 94 3d c7 c6 77 bd 0d 41 73 bc
       0.045115076 0.07237471 -0.060492303 -0.014847052
000250 16 ed 70 3c 0d c8 4e bd e1 8e 1d bd 92 f2 f4 ba
       0.014704963 -0.050483752 -0.038466338 -0.0018688014
000260 9b 40 c3 bc 22 d1 6b 3d c3 9f 96 bd eb be 4e 3d
       -0.023834517 0.05757249 -0.07354691 0.050475042
000270 6b e1 b8 3d 54 b0 9c 3d 7e 06 bb bd c1 db 3b bd
       0.0902737 0.076508194 -0.09132098 -0.04586387
000280 41 1c c5 3d ea d9 93 bc 4c 20 bf ba 96 c5 50 3d
       0.0962453 -0.018048245 -0.0014581769 0.050969683
000290 d4 6a 6b 3d 75 a2 41 bc 40 44 f1 bc 6e 15 80 bd
       0.057474926 -0.011818518 -0.02945149 -0.062540874
0002a0 8a 0d 76 bd 2f cc 1d 3d 49 f1 e7 3c 42 10 ad 3d
       -0.060071506 0.038524803 0.028313296 0.084503666
0002b0 9e 53 40 3d ba 25 8d bc 1c 44 8d bc 82 5f 78 3d
       0.046954744 -0.017229903 -0.017244391 0.06063796
0002c0 50 b7 a1 bb f8 55 05 3e 84 9b b0 3d c9 08 a4 bd
       -0.0049351826 0.13021076 0.08623412 -0.08009488
0002d0 c5 35 d1 bc 76 6d 7d 3d 29 25 e4 3d 83 3c cf 3d
       -0.025538335 0.06187197 0.111399 0.101189636
0002e0 66 96 85 3d 6a ff a7 3a 9e 96 e9 3b 09 e8 85 3d
       0.06522827 0.0012817208 0.0071285507 0.06538398
0002f0 57 bb 6d bd 0c 82 9c 3d 90 cd 22 3d 5d aa 8d bd
       -0.05803999 0.07641992 0.03974682 -0.0691726
000300 fd 56 ee bd c9 e4 0c 3e 86 4f 1b 3d 24 0a b5 3d
       -0.116376854 0.1375915 0.037917636 0.08839825
000310 f3 ad 0b 3d a4 ca 94 3d 07 16 9b bc a8 4b 86 3c
       0.034101438 0.07265213 -0.018931402 0.016393498
000320 4c 36 c0 3b 1c a8 5d 3c ac 35 5e 3e 1e b2 5a 3c
       0.0058658477 0.01352885 0.21700162 0.0133481305
000330 ad 5a bb bd bb 75 7c 3d bf 81 9c 3d 85 b9 d3 bd
       -0.091481544 0.061635714 0.076419346 -0.103381194
000340 b3 d7 ba bd b2 cd bb 3c 49 71 93 bd 9b 01 5f 3c
       -0.091231726 0.022925232 -0.07199342 0.013611223
000350 f4 d5 9c 3d 32 91 94 bd 54 5c 71 bb c1 e4 da 3d
       0.07657996 -0.07254256 -0.0036828713 0.106881626
000360 2c 0c 89 bc 4c fb 9a bd 56 e5 84 3d 9a c5 12 3b
       -0.016729437 -0.07567462 0.06489055 0.0022395612
000370 92 63 6b 3d a8 75 14 3d 3c d4 31 be 91 35 2e bb
       0.057468005 0.03624502 -0.17366117 -0.002658222
000380 b5 e3 8f 3e b1 2e cc 3d 82 1a 62 bc fb 34 98 bd
       0.28103414 0.09969843 -0.013800265 -0.0743198
000390 d3 de 50 3e a9 8d 4b 3e d9 10 e0 3d 4b 77 9f 3c
       0.203975 0.19878258 0.109407134 0.019466063
0003a0 de 03 37 be bf 1e c8 3d a4 a7 82 3a a3 d6 55 3b
       -0.17872569 0.09771489 0.0009968174 0.0032629154
0003b0 14 e9 b1 bc 3a f5 10 be 28 f8 1b 3e fd 74 14 3e
       -0.021717586 -0.14156047 0.15231383 0.14497752
0003c0 e3 31 22 bd fd 8a 4c 3e e0 be bb 3d 51 0e 71 bd
       -0.039598357 0.19974895 0.09167266 -0.058851544
0003d0 c4 fe 83 3d 59 03 a6 bd 4c 0b 09 3c 91 63 51 3e
       0.06445077 -0.08106107 0.00836451 0.20448138
0003e0 84 76 16 3d 39 2e f4 3d ff d9 1c 3c b6 f5 00 3e
       0.03673412 0.11922879 0.009573459 0.12593731
0003f0 52 a2 aa bd ef a8 44 3e 8a bd 0b 3e d4 8b 89 bd
       -0.083317414 0.19205068 0.13646522 -0.06716123

fc2.bias f4 [128]
000000 ad 55 25 3b 68 5a ac bb 3c 0e 77 3d 75 b3 08 3e
       0.0025228069 -0.0052598007 0.06031631 0.13349707
000010 fd ae 05 3d 2c eb 11 be 88 d2 b7 ba 86 54 f2 bc
       0.032637585 -0.14249867 -0.0014024535 -0.02958132
000020 8a e5 ca 3c bc 8a 0d 3d ea 15 18 3d ae 4c 1b bc
       0.024767656 0.034556136 0.037130274 -0.009478731
000030 75 70 2c 3e 36 56 64 bd ac 83 b9 3a 0f d4 91 3d
       0.16839774 -0.05574628 0.0014153621 0.07120525
000040 13 ff 05 be b6 5c 67 3e e3 1f 86 bd 65 55 54 3d
       -0.13085584 0.2259396 -0.06549051 0.05183925
000050 76 9a 5e be 2d b9 5e 3d 8e f8 77 3d 44 a9 65 3e
       -0.2173861 0.054375816 0.060539775 0.22427851
000060 14 7e 74 3d 44 db f6 3d 7f 93 aa 3c 6a d5 df 3d
       0.05969055 0.1205354 0.020822285 0.109293774
000070 e8 49 0b 3c 30 93 87 3d af 5f 46 3d f4 81 d7 bd
       0.008501507 0.06619871 0.048431095 -0.105228335
000080 12 85 91 3d 73 1b 5b 3e 75 47 d0 bc 89 01 eb 3c
       0.07105459 0.2139719 -0.025424698 0.028687255
000090 43 2a 92 3d f4 70 65 3d 31 f1 97 3d 5d c4 a0 3c
       0.07136967 0.056015924 0.074190505 0.019624883
0000a0 ed 33 99 bd 90 64 af 3d d6 e3 8b 3d 6b af 55 be
       -0.07480607 0.08564103 0.06830566 -0.20867698
0000b0 4d d2 f3 3c e4 78 d3 3d c0 42 74 bc 40 0b c9 3d
       0.029763365 0.103257924 -0.014908493 0.09816599
0000c0 b2 ef bc 3d 39 23 84 3d ed df 1e 3d 6e e3 0b 3d
       0.09225406 0.06452031 0.03878777 0.03415244
0000d0 46 eb 00 3e e0 1c 1f 3d fd 10 28 be f0 0c c1 bc
       0.1258975 0.038845897 -0.1641273 -0.02356574
0000e0 14 3f 8b 3c 5d 66 16 3c b1 ad 0d 3d 45 b7 41 be
       0.016997851 0.009179679 0.034589473 -0.18917568
0000f0 6c e4 05 be 51 59 7f bd 03 c5 96 3d e9 47 c4 3d
       -0.13075417 -0.06234104 0.07361796 0.09584028
000100 c5 ed 0b 3e b5 69 4c 3e e1 ef 9a ba 92 dc e3 3d
       0.1366492 0.19962199 -0.0011820757 0.11126055
000110 0c af ff 3d 23 15 c4 bd cc fe 1f 3e 19 ec 82 3d
       0.124845594 -0.09574344 0.15624541 0.06392688
000120 8e 6b 43 3e 5d 5a 56 bd f0 bb 3a bd ca c0 7d bd
       0.19083998 -0.05233227 -0.045589387 -0.061951436
000130 cb cd a0 3d 4d 4a cf 3d 36 e8 e3 bd 4a 01 0a 3e
       0.07851752 0.101215936 -0.11128275 0.13477054
000140 b4 ec 7b 3e de 97 a6 3d ae 9c d5 3d e8 8f 27 3d
       0.24602014 0.08134435 0.10430275 0.040908724
000150 f2 62 f9 bd 6e 3e 4e be 85 48 cd 3d 6a 25 c5 3b
       -0.121770754 -0.20141003 0.10023598 0.006016423
000160 9f f5 ab 3c a1 bc dd bd eb 1c b2 bc ce df b6 3a
       0.020991145 -0.10826994 -0.021742305 0.0013952197
000170 85 15 dd 3d ca 05 11 3d 98 50 50 3d 27 1b 02 3d
       0.1079512 0.03540591 0.05085811 0.031764176
000180 a0 cd 7d 3d 8f a0 10 bc bf df ed 3d 0c 97 d1 3d
       0.061963677 -0.008827343 0.11614942 0.10233888
000190 8d ce bc 3c ba 11 33 be fc b6 82 bc dc a9 2e 3e
       0.02304771 -0.17487231 -0.015956394 0.17056984
0001a0 0e c5 bf 3c 42 37 42 3e 02 6f 90 3d c0 70 8d bc
       0.023409393 0.18966392 0.07052423 -0.017265677
0001b0 5e 41 e4 bd ec 39 cf 3d 35 0d a8 3c 84 f1 d7 3c
       -0.1114528 0.101184696 0.02051411 0.02636028
0001c0 a3 aa be 3d 0f 36 42 3e 91 e9 2b be ba dc 42 bd
       0.0930989 0.18965934 -0.16788317 -0.047573783
0001d0 e8 8f 82 3d 8e 67 38 bd 59 5d b4 3d da ac 4b 3d
       0.06375104 -0.045020632 0.08806867 0.04972539
0001e0 de a0 b8 bd 88 42 86 3d 22 e4 53 be cc 62 a1 bd
       -0.09015058 0.065556586 -0.20692495 -0.07880172
0001f0 64 0a 3e 3e d3 69 a3 bd 08 27 cb 3d c6 39 e6 3c
       0.18558651 -0.07979169 0.09919554 0.02810372

fc3.weight f4 [2, 128]
000000 0c 6c 3f be 95 60 3d 3d 49 da 51 bc d6 a9 59 bd
       -0.1869356 0.046234686 -0.012808391 -0.053140484
000010 84 0d 2b bd a9 eb 40 3e 3e 0d b9 bd a1 83 f3 3d
       -0.041760936 0.18839897 -0.09035729 0.118903406
000020 bf 30 b0 bc d4 fa 04 3d ee de 12 be 33 28 11 3d
       -0.021507619 0.03246577 -0.14342853 0.035438728
000030 28 b1 61 bd 11 e4 1c 3d 39 eb b2 3c 76 20 fc 3c
       -0.05510059 0.03830344 0.021840679 0.030777197
000040 df 77 37 3e 09 e6 1d be a5 90 21 ba 16 cd 83 b8
       0.17916821 -0.15419783 -0.00061632163 -6.284767e-05
000050 d2 e4 84 3e 12 d9 31 3d 99 7f d2 bd f7 3f a0 bd
       0.25955826 0.043419905 -0.102782436 -0.078247
000060 fc a0 0d be 55 a2 ff bd 71 fa 9d 39 3f 5c 8b 3b
       -0.13830942 -0.12482134 0.00030131967 0.00425294
000070 de 7e 76 3d b4 98 41 ba a1 f9 06 bc b1 1d 01 3c
       0.060179584 -0.000738512 -0.008238227 0.007880614
000080 b6 8f eb 3b ef 5f 27 be 27 b7 2c 3d 82 60 6f 3d
       0.0071887625 -0.1634519 0.042166855 0.058441646
000090 13 90 16 3d e5 35 39 bd 49 02 ad 3c f0 94 2c 3d
       0.036758494 -0.045217413 0.021119254 0.042134225
0000a0 82 d6 0d 3d 77 b4 07 be 3d 45 b6 3c 1c 45 87 3e
       0.0346284 -0.13252436 0.022249812 0.26419914
0000b0 f5 7e ba 3d cc e6 0a bb 86 5c 95 bd 8b 4e bf 3c
       0.091062464 -0.0021194695 -0.07293038 0.023352882
0000c0 c8 f8 e8 3c 3c 35 71 3e 56 c4 ed 3c f5 46 f9 3b
       0.02843894 0.23555464 0.029024284 0.0076073357
0000d0 08 6b 59 be 2e 4e a9 3b ce 21 52 3e 2f 8f af 3c
       -0.21232235 0.0051667904 0.20520708 0.02143058
0000e0 44 27 8e 3c 04 de b7 bd 84 11 5d bd bb 9a 8d 3e
       0.017352708 -0.08977893 -0.053971782 0.27657112
0000f0 6e ee 1e 3d a5 2d b4 3c 9d 6e 27 be 9d ae 9e be
       0.038801603 0.021994421 -0.1635079 -0.30992594
000100 cb e7 58 bd 7c a3 51 be fe c8 e1 3d a6 80 21 bd
       -0.05295543 -0.2047252 0.11024664 -0.03942933
000110 f9 1d 33 bd 99 d2 14 3e 53 34 a4 bd cf a7 ae ba
       -0.043729756 0.14533462 -0.080177926 -0.0013325157
000120 a8 2e 21 be 98 72 d1 3d 67 17 65 3d 54 ea 28 3d
       -0.15740454 0.10226935 0.05593052 0.041239098
000130 ff 43 5e be 50 11 b7 bc 71 99 fe 3d f4 b1 e5 bd
       -0.21705626 -0.022347122 0.124316104 -0.112155825
000140 c0 1e ee bd 7d 52 8f bc 1f 78 01 be b4 b1 16 3c
       -0.11626959 -0.017495388 -0.12643479 0.009197641
000150 aa 0e 87 3c 74 99 6b 3e f4 14 29 3c e9 6b 08 3e
       0.016486485 0.23007756 0.010319937 0.13322414
000160 2c 92 9c be 50 80 9d 3b 17 60 d9 3c 11 ec 94 3c
       -0.3058027 0.004806556 0.026535077 0.018178971
000170 b9 57 50 bc f6 1b 2a be b0 b2 3b 3a d0 8e 04 3d
       -0.012716227 -0.16612229 0.00071601104 0.03236276
000180 b6 e1 28 3b f7 c2 52 be 50 46 21 be 0f 89 42 be
       0.00257693 -0.20582186 -0.15749478 -0.18997596
000190 59 d0 44 3d 00 1f b6 3e 8c 50 24 bd 93 67 12 be
       0.04805026 0.35570526 -0.040115878 -0.14297323
0001a0 50 68 ec 3c b1 bc 09 be c0 ea ac 3b 7a be 83 be
       0.028858334 -0.13450886 0.005277008 -0.2573126
0001b0 67 72 4c 3e 53 de d8 3c 16 42 f9 3c 86 71 0a 3d
       0.19965516 0.0264732 0.03042702 0.03379967
0001c0 33 0e 60 3c e4 03 de bd ec 51 50 3e ee a5 7e 3d
       0.01367526 -0.10840586 0.2034375 0.06216996
0001d0 96 81 46 be 24 43 f4 3b 6f bd 81 bb bb ec f9 bd
       -0.1938537 0.007454293 -0.00395935 -0.12203356
0001e0 a1 36 38 3e ab 2d 4f bc d7 80 82 3e 41 d5 70 3d
       0.1798959 -0.012645165 0.25488922 0.058797125
0001f0 67 87 5e bd c5 58 a6 bd c2 49 97 3d d7 21 9f 3c
       -0.05432835 -0.081224 0.07387115 0.019425316
000200 f7 cf a6 bd df 2c 89 bd fb df 8b bd 35 1d e3 bd
       -0.08145135 -0.066980116 -0.0682983 -0.11089555
000210 d2 82 a6 bd 24 97 7f bd 2e 62 ac bd 7f e5 97 bf
       -0.08130421 -0.0624 -0.08417164 -1.1866912
000220 23 8a a1 bd 5d ec 93 bd 2e e8 a9 bd 4e d8 d4 bd
       -0.078876756 -0.07222817 -0.08296238 -0.10392819
000230 80 df 96 bd e7 69 a7 bd bf bc a3 bd 58 9a 81 bd
       -0.07366848 -0.08174496 -0.07994985 -0.06328267
000240 52 d8 82 bd 33 07 35 be c6 26 84 bd 9a 6b 87 bd
       -0.06388916 -0.17678528 -0.06452708 -0.0661232
000250 83 d2 a7 bd a7 2a a1 bd c9 0d c4 bd 05 28 f9 bd
       -0.08194449 -0.078694634 -0.09572942 -0.12165836
000260 80 c5 6c be bb cd 04 be 3f 86 7b bd 0d 02 8f bd
       -0.23122215 -0.12969105 -0.061407324 -0.06982813
000270 66 b4 b2 bd 3a 53 9a bd 35 2e 62 be d7 0f 9e bd
       -0.087258145 -0.075354055 -0.22087939 -0.07717865
000280 0a 9f 91 bd 2a 1a 2e be 6b d0 8e bd 70 d0 a0 bd
       -0.071104124 -0.17002168 -0.06973346 -0.07852256
000290 40 4a 6f bd bb eb d4 bd 8e 4b a0 bd 0b 83 bd bd
       -0.05842042 -0.103965245 -0.07826911 -0.0925351
0002a0 d0 87 92 bd 9d 0e d8 bd b6 ee 70 bd f8 e2 32 be
       -0.071548104 -0.10549662 -0.058821402 -0.17469394
0002b0 79 09 ba bd 65 a9 83 bd c3 1a d4 bd 51 45 86 bd
       -0.09083838 -0.06428794 -0.10356667 -0.0655619
0002c0 89 3c 8f bd aa 65 04 c0 5e 73 75 bd 8b 22 5b bd
       -0.06993968 -2.068705 -0.059924476 -0.05349974
0002d0 dd 9f f4 bd 03 82 93 bd 78 cb 6a bd 9b fb 9d bd
       -0.11944554 -0.07202532 -0.05732295 -0.077140056
0002e0 f2 6c a9 bd 58 c3 ea bd ab db 93 bd 89 ac a0 bd
       -0.08272733 -0.1146304 -0.07219633 -0.078454085
0002f0 e3 19 8f bd c9 eb 8c bd 0f ec 53 be 42 f5 34 be
       -0.069873594 -0.0688091 -0.20695518 -0.17671683
000300 8d 8c ef bd ad f4 9a be b1 0a f4 bd c2 b1 ce bd
       -0.1169673 -0.30264798 -0.11916102 -0.10092498
000310 d5 80 c1 bd ff 94 13 be 28 33 b9 bd f5 f1 8e bd
       -0.09448401 -0.14412306 -0.090429604 -0.069797434
000320 ec b5 8b be 95 3f d1 bd 3b 4e 8a bd ee b6 87 bd
       -0.27287233 -0.102172054 -0.067532025 -0.06626688
000330 27 3a 23 be 7e 9d ae bd ad 4e ee bd 23 1f 12 be
       -0.15940152 -0.08526133 -0.116361 -0.1426969
000340 d8 86 25 be b6 b6 b4 bd 60 11 a3 be 7e 39 c0 bd
       -0.1616472 -0.08823912 -0.31849194 -0.09385966
000350 e1 1c 14 bb b0 2c 59 bd 02 dd 7e bd c9 ee 6b be
       -0.002260022 -0.053021133 -0.06222249 -0.23040308
000360 8a a9 47 be fc ac b9 bb 3e e0 7d bd 2d 5b 8c bd
       -0.19498268 -0.0056663733 -0.061981432 -0.06853328
000370 e4 bd af bd 0b c4 aa bd 0f 99 76 bd a7 91 bb bd
       -0.08581141 -0.083381735 -0.06020456 -0.0915864
000380 3e 7a 6b bd e7 19 c3 bd 3e 94 3a be b0 b9 88 be
       -0.057489626 -0.09526425 -0.18220612 -0.26704168
000390 d2 8b 6d bd 3e ed c0 be 26 85 cb bd 28 60 36 be
       -0.05799467 -0.37681 -0.099375054 -0.17810118
0003a0 43 63 68 bd 4f b9 3d be 42 e9 89 bd 8d 81 cc bd
       -0.05673529 -0.18527721 -0.067339435 -0.09985647
0003b0 40 3a 6c bd 6b e6 8e bd d2 3b b2 bd fd a1 86 bd
       -0.05767274 -0.069775425 -0.08702816 -0.065738656
0003c0 b6 5a 7c bd dd 8f 12 be 80 36 81 bd 2e ed 87 bd
       -0.061609946 -0.14312692 -0.06309223 -0.06637035
0003d0 29 fb d4 bd 4d f1 9e bd 37 55 82 bd 70 66 2c be
       -0.103994675 -0.07760868 -0.0636391 -0.16835952
0003e0 a4 19 31 bd fe cf 8d bd ce ac ba bd 1d 3b 81 bd
       -0.043237343 -0.06924437 -0.09114991 -0.06310103
0003f0 65 d9 c2 bd 0c 6f 8f bd ed 81 ed bd 11 9b 80 bd
       -0.09514121 -0.070036024 -0.11597047 -0.062795766

fc3.bias f4 [2]
000000 d5 cd 4a bd 1e 96 06 be
       -0.049512703 -0.13143203
