actor_ckpt_0_.pth (torch_old, 49300 bytes, 10 tensors)

fc1.weight f4 [64, 48]
00000000: 7fd9 03be 5f92 8a3d 03a7 6abc af7d d23c
00000010: 4802 19bc 548d 2e3e 5767 f33c b18f c83c
00000020: 6d89 2bbc 9138 083b 44f3 fe3d 2937 a2bd
00000030: 1624 e7bd 0530 2a3d 7866 8d3e f7ca 173e
00000040: 0c9f da3c ba45 863e e62f 2abd be1e ce3d
00000050: 1271 dabd 2d6b 0c3e da45 1bbe dbdd 06bd
00000060: dd9c 2a3d 789b b63c 2c67 be3d 1e41 9abc
00000070: 0039 41bd 4803 053e bb4f f03d 3d5b 0f3d
00000080: 1d89 0dbe d032 c63c 2db4 603d 09c0 dbbd
00000090: 8364 533e 49e9 0b3e b6a6 6cbd b57a 04bd
000000a0: aee4 383d bf79 10be cfc5 943d 9541 2b3d
000000b0: 12d2 c23d aedb e83d 8472 a43c 5744 193d
000000c0: 9dd0 043e bad8 bf3c 27a8 4e3d f3da 013e
000000d0: a78d fcbd 92a7 f93d 5af8 d83d 37ba 443d
000000e0: 37c1 973d 6615 743d a34e 00be b16b 12bc
000000f0: 2bc0 f3bd 4c05 523e d35e d3bb 2e19 9fbc
00000100: 612f 283e 449c b63d bb6c 8abb e2ad f53c
00000110: 99bb e8bb e00f 78bc ddd2 253e d142 12be
00000120: 0bcb ec3d eedf 113d 6d5c 53be bfe5 2ebd
00000130: 15f1 df3d f09a 083d 85f9 3ebe e98c 16bd
00000140: 730b a9bd af66 66bd 15c6 8238 85ef 143d
00000150: 8393 183d 7c30 493d 4a52 d13b c01b 66bd
00000160: 4ddc 1ebd 46b3 dc3d b030 373e fb88 4cbe
00000170: 6fb7 dcbc 1099 4bbd 6c18 143e 70c5 37bd
00000180: d127 00be 5308 23be 110e 623d 131a 35be
00000190: 8d2b 5a3e 2e3a 703e 23f6 0b3c b9a2 93bc
000001a0: 5cfd 53bd 7ba5 9cbd 263f 95be 3f9a 1abe
000001b0: 8ccb c93d 407a b53e 93d8 13be 0f15 31be
000001c0: 569d 443d c0b2 3b3d 1a85 d23c 4802 64bd
000001d0: efea c43c 7d74 ad3d 23cf 5dbe f874 a43b
000001e0: cf1d 95bd 9113 33bd 5447 1dbd 1b6e c3bc
000001f0: 8d25 d9bd c8be 813e 43c4 b7bd e43f c7bd
00000200: 8347 9ebc 2016 debd 92ba 9fbd fbe3 213c
00000210: 797e a5bd 6828 a33e f446 cb3d 0cbd b53d
00000220: 9ab5 27bd 0b04 d43d d851 a63c 5f5c 1fbe
00000230: a447 47be 8324 293e e729 51bd 77d3 c6bd
00000240: 6274 8cbe ca03 cc3d c1ce 173e 4d21 5dbe
00000250: faf0 62bc 2cae b63d 7623 c0bd 8f46 77be
00000260: e0f6 8fbe 9c76 963d 10b3 92bd 7807 ccbd
00000270: 9120 afbc a4e1 54bc 9868 90bd d719 f6bd
00000280: a640 60be dea4 0e3e 4d32 883d 4ff1 70be
00000290: bf96 a2bd 4e6c c9bd dbbe 093e 795b 83be
000002a0: f2d7 4fbe d666 123e 0a39 983d 1199 a23e
000002b0: fd27 ecbd bc0c 073d f1ff 84bc c7c3 cf3e
000002c0: 042e dfbd 97e4 5a3e 1378 c5bd 1fdd ce3d
000002d0: 0bcc 64ba a25b 1abd 361a 25be 7ff2 6c3d
000002e0: a6e8 14be 95a0 903e 0a19 dc3c 32db e63d
000002f0: d412 2ebd a456 23bd b595 e7bd 8c23 623e
00000300: 3f27 963c c5ff 303c 4460 5a3d 93f7 45be
00000310: 1ac8 e6bd d3b7 2c3d 6e07 3c3e 53e3 acbe
00000320: fb78 d83d 1de5 fd3d 7e88 133c 2a97 f6bd
00000330: 0bbe bcbc 5caa 27bd 4c82 d7bd 4cc2 77be
00000340: 30d6 ec3c 6a2c b03c 03d4 dbbd 2948 c8bd
00000350: f218 28be c54f 863d 89c5 e3bd 1887 79bd
00000360: 6f68 d13d 5cfe c2bd 365b dabd ab28 363d
00000370: 645f dd3d 1a83 f43d e044 00be e0d7 0a3e
00000380: 8291 473e 718e 583e 2bf5 733d f275 bebc
00000390: 356b 90bd 6a1d 973d 4120 183d 7416 a2bd
000003a0: b1fe 6d3d f5f2 7a3d db36 1dbe 07a1 c8bd
000003b0: 627a 623d 8443 d63d 9fba 8abd ae14 7e3d
000003c0: c925 f9bd 3aba a83e 4d87 40be d461 7e3d
000003d0: 92c5 01be 7111 dbbd f9f5 a7bd 87c8 0bbe
000003e0: 1b76 a3bd 9bfd cc3e 8dc3 38bd 60bd 03bd
000003f0: 76b1 1dbe 6e7c bf3d 8d26 40bd 36c5 78bd
-0.12875937 0.06766199 -0.014322045 0.025694696 -0.009338923 0.170461 0.029712362 0.02448258
-0.010469777 0.002078567 0.12448743 -0.07920677 -0.1128618 0.0415497 0.2761724 0.14823519
0.026687168 0.26225072 -0.041549586 0.10064457 -0.10666098 0.1371276 -0.15163365 -0.03292642
0.041653503 0.02229093 0.09297022 -0.018829878 -0.0471735 0.12989533 0.117339574 0.03499912
-0.13821836 0.024194151 0.05485933 -0.10729987 0.20643811 0.1366321 -0.057776175 -0.032343585
0.04513996 -0.14108942 0.072642915 0.04181059 0.09512724 0.113700256 0.020074137 0.03741869
0.12970205 0.023418773 0.05045333 0.12681179 -0.123317055 0.121901646 0.10594244 0.04802915
0.074099 0.05959072 -0.12529998 -0.008936808 -0.119018875 0.20509833 -0.006450513 -0.019421186
0.16424324 0.08916524 -0.0042243875 0.02999014 -0.0071024415 -0.015140504 0.16193719 -0.14283301
0.11562165 0.035613947 -0.20640726 -0.04269957 0.109346546 0.033350885 -0.18649872 -0.036755476
-0.08254137 -0.05625027 6.235779e-05 0.036361236 0.037250053 0.049118504 0.0063879834 -0.05617881
-0.038784314 0.10776381 0.17889667 -0.19974129 -0.026942937 -0.04970652 0.14462441 -0.044866025
-0.12515189 -0.15921144 0.055189196 -0.17685728 0.21305676 0.23459694 0.00854257 -0.018021928
-0.051755294 -0.076487504 -0.2914974 -0.15097903 0.098532766 0.35444832 -0.14438085 -0.1729319
0.04800161 0.045824766 0.025698233 -0.055666238 0.024037806 0.08469484 -0.21661048 0.0050188266
-0.07281076 -0.04371983 -0.038398102 -0.023856213 -0.10602865 0.25340867 -0.08972981 -0.09728983
-0.019321209 -0.10844064 -0.07799257 0.009881015 -0.08080763 0.31866765 0.099256426 0.088739485
-0.040944673 0.10352334 0.020302698 -0.1556258 -0.19460922 0.16517834 -0.05106535 -0.097083025
-0.27432543 0.0996166 0.14824964 -0.21594734 -0.013851399 0.089199394 -0.09381764 -0.2414801
-0.28118038 0.07346842 -0.0716306 -0.09962362 -0.021377834 -0.01299325 -0.070512 -0.12016647
-0.21899661 0.1393008 0.06650219 -0.23529552 -0.07938909 -0.098351106 0.13451712 -0.25655726
-0.2029722 0.14297041 0.07432754 0.31757405 -0.11531065 0.03297113 -0.016235324 0.40579054
-0.10897449 0.21376263 -0.09642043 0.10100769 -0.00087279145 -0.037685044 -0.1612328 0.05784845
-0.14541873 0.28247514 0.026867408 0.11272277 -0.042498425 -0.03987755 -0.11307851 0.22083873
0.01832926 0.010803168 0.053314462 -0.19332723 -0.11268635 0.042167496 0.18362209 -0.33767185
0.1056995 0.123972155 0.00900471 -0.12040551 -0.023039838 -0.04093395 -0.10522899 -0.24195212
0.028910726 0.021505553 -0.107337974 -0.097793885 -0.16415766 0.065581836 -0.11121661 -0.06091985
0.10224997 -0.095211715 -0.10661928 0.044472378 0.1080921 0.11939068 -0.12526274 0.13558912
0.194891 0.21148087 0.059559982 -0.0232496 -0.07051698 0.07378657 0.037140135 -0.07914439
0.05810422 0.061266858 -0.15352957 -0.097963385 0.055292495 0.10462096 -0.067738764 0.06203144
-0.1216541 0.3295458 -0.18801613 0.062105015 -0.12673023 -0.10696686 -0.082012124 -0.13650714
-0.07981511 0.40037236 -0.045108367 -0.032163024 -0.15399727 0.09349905 -0.046911765 -0.06073495

fc1.bias f4 [64]
00000000: ae77 c43d 4747 09be 14da c9bd 8c94 233d
00000010: f0c1 683b b008 a83d 81f1 7c3d 1228 e73b
00000020: a868 b43c 7a02 d83d c9fa 0abe 5a50 4abd
00000030: d3bc be3d b910 e7bd 0e44 8d3d 966b c43d
00000040: 6bf8 3d3d f9a3 c1bd 9b96 a5bd 4bb2 083d
00000050: 71e5 83bd 2b73 683d bbbc 293d 581f d63c
00000060: dcce 053e 838a 0ebe 62e4 0dbe bff4 c43d
00000070: 2b7a 46bd 74f7 0cbe 6984 45bd 1ce6 e03d
00000080: a0a6 a6bc 4f52 903d f045 ac3d 803b 35bd
00000090: 5f74 993d c275 363d a3e8 bcbd 434e eebc
000000a0: 0f4c b33d b2f3 653d 7d86 a43c 1f1d 91bc
000000b0: 232d d0bd 1db7 55bd d5a4 bf3d 3121 00bc
000000c0: 7d30 b1bd d8f6 9c3c 93aa f3bd 2cfb 91bc
000000d0: acb3 c1bb cbbb 0bbe d3c4 c6bd 2e51 c8bd
000000e0: be8a cdbd 750d f13d c231 663d 4e14 d1bd
000000f0: 4a02 7cbd ef29 d93d 2509 013e 271a 673c
0.095931396 -0.13406096 -0.09856048 0.039936587 0.0035515986 0.08204782 0.061753754 0.0070543373
0.02202256 0.10547347 -0.1357223 -0.049393035 0.09313359 -0.112824865 0.06897746 0.09590833
0.046379488 -0.094551034 -0.08085366 0.03337316 -0.06440247 0.056750458 0.041439753 0.026137993
0.13067192 -0.13920026 -0.13856652 0.09616994 -0.048456352 -0.13766271 -0.04822198 0.1098139
-0.020343125 0.07046949 0.08411777 -0.044246197 0.07492899 0.044545896 -0.092240594 -0.029090052
0.087547414 0.05614061 0.02008366 -0.017714081 -0.10164859 -0.052176584 0.09357611 -0.007820413
-0.086518265 0.019160673 -0.11897769 -0.017819963 -0.005911311 -0.13645856 -0.0970551 -0.09781109
-0.100362286 0.11770145 0.056199796 -0.10208951 -0.06152562 0.10603701 0.12601145 0.014105356

bn1.weight f4 [64]
00000000: c38c 383f d0ba 7c3e 398c 7e3f 0f80 113f
00000010: 5df3 613f d678 1b3f f2c1 853f 7fb3 873f
00000020: 7d2a 233f 775a 093f b7e2 1f3f ed71 e43d
00000030: 23fc 453f ed94 8e3e 277b 933f db05 7b3f
00000040: e478 403f 960c 6b3f 5afd 213f 9b62 8a3f
00000050: 30fd 5c3f c98a 403f 38fc 483f 7f4c 183f
00000060: 17c9 993e 6b25 0e3f 3085 853f 144f 5b3f
00000070: 319b e83e 34f4 1e3f e142 823f 3f0c 3a3f
00000080: 1a6c 7d3e b954 283f 5a6a 2b3f 87d5 2a3f
00000090: 5ebc 093f fc3a 643f a282 bc3e 7185 8f3f
000000a0: 19a9 f63e fde0 803f b8ff 883f ec0f 9b3f
000000b0: 616d 213e 994a e03e 46c8 273f 1e56 d33e
000000c0: 7efc 873f d73f 123f 4e86 183f 6dbf 623f
000000d0: e4c1 483e bfb1 4e3f 7097 d33e a3ad 853f
000000e0: 21d0 9a3f e97b 133f 4e55 c23e d157 793f
000000f0: 669d a43e d951 973f fcd9 743f 552b 5c3f
0.72089785 0.24680638 0.9943271 0.56836027 0.8826197 0.60731256 1.0449812 1.0601653
0.63736707 0.53653663 0.62455314 0.11154542 0.77337855 0.27847996 1.1521958 0.9805581
0.75184464 0.9181608 0.6327721 1.0811342 0.86323833 0.7521177 0.78509855 0.59491724
0.30036232 0.55525845 1.0431271 0.8566754 0.45430902 0.62091374 1.017666 0.72674936
0.24748269 0.65754277 0.66959155 0.66732067 0.5380305 0.89152503 0.36818415 1.1212598
0.48175886 1.0068661 1.0703039 1.2114234 0.15764381 0.43806913 0.6553997 0.4127664
1.062393 0.5712866 0.5957993 0.8857334 0.19605213 0.8073997 0.41326475 1.0443615
1.2094766 0.57610947 0.37955707 0.9739962 0.32151335 1.1821853 0.9564512 0.8600362

bn1.bias f4 [64]
00000000: 1985 813c acdf 853b b126 7abb 9e07 22bd
00000010: 6b82 423e 653a aebc a0db abbd 435a 543e
00000020: d9d6 c93d 4566 073d 5625 09bb d1db 663c
00000030: 38df 633d 3436 06bd cc1c 093e 3455 a1bc
00000040: 0e0b 9b3d ab5d 9dbd 1d88 d8bd 8e04 f9bd
00000050: 0eb0 e73d 4620 8739 1719 443d 989e 3e3e
00000060: 9409 a03d efa1 8a3c 4c07 13bd 5823 5f3d
00000070: db9b 073e 4382 2b3e 4df2 cdbc 3f6b 77bd
00000080: 150f acbb e08e 1f3e 12a4 8c3d 750d 223d
00000090: edfa 813d d6ae cc3d def1 0ebc b5f8 153e
000000a0: 2ab4 183b b895 0ebe c509 02be b49f fcbd
000000b0: 9038 4dbd aed7 70bd fadc cd3c 5587 2dbc
000000c0: 05ce 5bbc cb59 adbc 90fd bfbd 77f0 873d
000000d0: 592a 383d a15f a43d 509c 40bd 6578 66bb
000000e0: 2b01 64bc 50bd f73c 7ce4 9a3d 38d5 01bd
000000f0: 6217 debd 89d8 45bd 5a28 c33c a571 dc3d
0.015810536 0.0040855017 -0.0038170035 -0.039558046 0.18995063 -0.021268079 -0.083914995 0.20737557
0.09855432 0.033056516 -0.0020926795 0.014090494 0.0556328 -0.032766536 0.13389891 -0.019693948
0.07570468 -0.07683881 -0.105728365 -0.12159072 0.11312877 0.00025773252 0.04787549 0.18615186
0.07814327 0.01692292 -0.03589563 0.054477066 0.13243048 0.1674891 -0.025139952 -0.060405012
-0.0052508214 0.15581846 0.068672314 0.039563615 0.063466884 0.09994285 -0.008724658 0.14645655
0.0023300746 -0.139243 -0.1269904 -0.123351485 -0.05010277 -0.05879944 0.025129784 -0.010591348
-0.013415818 -0.02116098 -0.09374535 0.06637662 0.04496226 0.08026052 -0.04702407 -0.0035166976
-0.013916294 0.030241638 0.07563111 -0.031697482 -0.10844304 -0.048302207 0.023822952 0.107638635

bn1.running_mean f4 [64]
00000000: d46b 9e40 c5d9 62bf e80a 3a40 b3dd 5840
00000010: c322 a7c0 7a20 ecbf 84e2 83c0 87bd 2341
00000020: 6168 d7c0 6ea5 20bf 17cf 0040 de90 d83f
00000030: 3b67 04bf 4a9d a9be a90c 05c1 7131 1641
00000040: 82e5 f3c0 b406 2240 412b 92bd 14ce d9c0
00000050: 05c1 1740 304a ff3f e38c 8b40 f7f1 f5bf
00000060: 7de2 3e3e 87dc 96bf e3a6 6abf bc3c cb3e
00000070: cee6 5f40 16ad 1f41 672a f13f be65 943e
00000080: 257f ad40 d65d 11c0 0a93 333f 4000 863f
00000090: 98e9 6e40 f260 9d40 4646 87c0 3802 ad40
000000a0: 146e 7a40 dc8f 2ec0 646b 6c40 c95b 87c0
000000b0: 50b0 ea40 0e4f 773f ecb6 f140 7663 c740
000000c0: 4d00 61be 8e72 a23f e75c e0bf 7922 72c0
000000d0: abf3 663f c8e5 0ec0 9ac9 5640 dd5a 4d40
000000e0: fd0a db3f 10b5 81c0 2540 80c0 2866 8e40
000000f0: edde 8340 54e4 ac40 01fb c940 73d0 67c0
4.9506626 -0.8861354 2.9069157 3.3885314 -5.2229934 -1.8447411 -4.121401 10.233771
-6.7314916 -0.62752426 2.0126398 1.691921 -0.5172002 -0.33127815 -8.315591 9.387071
-7.621766 2.5316591 -0.07137156 -6.806406 2.371156 1.9944515 4.360948 -1.9214467
0.18641086 -1.178605 -0.916609 0.39694774 3.4984622 9.979757 1.8841065 0.28983873
5.4217706 -2.2713523 0.7014624 1.0468826 3.7330074 4.918084 -4.2273283 5.406521
3.9129686 -2.7275305 3.6940546 -4.2299542 7.3340225 0.96605 7.5535793 6.230891
-0.21972771 1.2691209 -1.7528352 -3.783354 0.9021556 -2.2327747 3.3560548 3.2086709
1.7112728 -4.0533524 -4.00783 4.4499702 4.1209626 5.402872 6.31189 -3.6220977

bn1.running_var f4 [64]
00000000: dc20 2f43 e9f6 be42 79ff 0143 865d 8e42
00000010: 8afa f342 d401 1043 30f8 8942 4bad 4142
00000020: 77e2 f042 88c8 9142 026c 8542 3dd6 9c42
00000030: ac74 6b42 f65c 3242 e484 ab42 b982 2043
00000040: 236a f642 8202 a042 69da 5542 6449 9442
00000050: f145 4542 592d 5742 171e 2c43 f630 1343
00000060: 9993 1c43 b5f7 cd42 a2b5 9542 c816 b042
00000070: ae03 0743 f16e b042 f493 9e42 bd03 ae42
00000080: b947 f242 403f e842 bf20 e842 3f4f 8242
00000090: 5089 5442 7566 c942 69bd b142 d1d1 f542
000000a0: dce1 8042 e716 2342 5e08 db42 b08c bb42
000000b0: 0024 aa42 23a4 7d42 0bb9 b442 6e34 0a43
000000c0: bad4 d142 ace2 7142 3adb 0e42 d49d bb42
000000d0: 6639 cf42 e05c 1e43 a320 c642 7679 1d43
000000e0: 63ac 2443 9146 cd42 15bf 3643 4fdf 8d42
000000f0: c4db c242 8e3f 0143 7746 2243 659c 0543
175.12836 95.48225 129.99794 71.18266 121.989334 144.00714 68.98474 48.41923
120.442314 72.89166 66.71095 78.418434 58.863937 44.590782 85.75955 160.51064
123.2073 80.0049 53.46329 74.14334 49.318302 53.794285 172.11754 147.19125
156.57655 102.9838 74.85475 88.044495 135.01437 88.21668 79.28897 87.0073
121.14008 116.123535 116.06396 65.15478 53.134094 100.70011 88.86994 122.9098
64.44113 40.772366 109.51634 93.77478 85.07031 63.41029 90.36141 138.2048
104.91548 60.47136 35.71409 93.80826 103.61211 158.3628 99.06374 157.47446
164.67339 102.637825 182.74641 70.93615 97.42923 129.24826 162.27525 133.61092

fc2.weight f4 [128, 64]
00000000: e651 b53c 566a 5f3d 450a 76bd 45e5 c6bd
00000010: fda6 b7be 9541 433e e3c5 b6be fc0f b8be
00000020: 29d6 90be 8f9f 9abd de19 5f3e da65 e03b
00000030: a9d2 4fbd af39 e63d d9e4 8cbe ca09 5bbe
00000040: c134 6ebe 0844 133e b67f ad3d 3366 983d
00000050: b72c a43d 5dd9 9bbd e7a2 713d 5c9d f7bd
00000060: d311 2abc 0538 8e3e f9d6 273e b566 943d
00000070: 240e 4cbd c3d3 20be 2a79 2a3d 1bc4 a3bd
00000080: 8ca9 ec3c aba8 393e 8ef6 89bd 5517 d2bd
00000090: b2b5 59be b1b5 b1bd b865 6a3d ba26 a7bd
000000a0: 8765 7d3e 6192 cd3d 9e76 223e 0480 10be
000000b0: 2e63 8e3c 257b 2b3e e16c 253e a6ae dcbe
000000c0: 77cb 733d 20d7 2bbe 1113 113e 07ca a53c
000000d0: 78a8 643c 0a9e 37be 24de 51bc e296 073e
000000e0: 5664 e1bc c05e ea3d 0261 04be dfc2 843e
000000f0: 85ea a6bd 47e8 383e 77e5 a93c c39d 253e
00000100: 092a 29be c9d8 0c3e a946 8ebd b736 d0bd
00000110: 7308 a83c 2bd8 8f3c d50d ee3d d583 a1bd
00000120: c3e0 36bd ddbc 81bc cf7d cf3c 4568 59bd
00000130: 30c5 4cbc 5a9d babd 1728 3ebe 4bf4 0abd
00000140: 7c9f 173d 0a0a 20bd 4236 303d 31c6 4b3e
00000150: f8c3 123e 69ba c2bd aa9f 903e 77de 4cbe
00000160: 8a3e a5bd 8107 2e3c 3b6e 1f3e e2d4 55bd
00000170: 126a d1bd 2318 003c 4705 f93d 40f1 3abc
00000180: db56 0fbe cddf 92be cce0 21be ed02 423e
00000190: 3a11 913d 0388 0a3e 6fd3 c63d dc12 5cbe
000001a0: f5ca a7bd 5db9 143e 2005 e83d 5ff4 be3d
000001b0: 09e7 f93c 6d56 003e 846a 1f3d c72a 283d
000001c0: a5f8 013e 556b 833d af92 c43d fbf1 d83a
000001d0: c758 df3c 9c3a 623e ab0b 123e 1aae 243d
000001e0: e519 7fbe 70fb 3fbd ae7f d43d c222 e23c
000001f0: 29a9 6ebd 72ef f43d 3f0e eb3d afef 4abd
00000200: 5298 9cbd 10e3 ca3d e0de 4ebd 1e70 6b3e
00000210: d872 943d 6bcb c3bd 1271 033e e150 333e
00000220: 0494 103d b7ce f4bd 3c22 b33d 0af8 463a
00000230: 0acb b0bc f879 5fbe d00e 48bd 88be e13b
00000240: f023 bb3c f157 0f3c 3073 f9ba d310 2a3d
00000250: bce7 993e e46f edbd 2187 d23d db6e 0cbe
00000260: cda6 47be e6c1 b03d ea06 a33d 6864 e03c
00000270: 6355 f53d e80c 993e eac5 b3bc eaf6 79bd
00000280: 3807 7cbd a254 81be fb5e 08bd 67ed 243e
00000290: d82b a43d df38 163e 70d8 1c3e 9094 9ebe
000002a0: 9098 813d 47d2 8d3d 78fd c23d 4330 103e
000002b0: 0620 0f3e b0a7 933d 4a9e 313d d7c3 dd3d
000002c0: 5c75 2d3e 867c 443e 2289 c93d 2dac 7ebd
000002d0: 214d 16bd f43f 803e aa63 363e 44a6 fa3d
000002e0: 863f a4bd c87d 45be f0c4 2a3e d109 e33d
000002f0: a423 abbd 0624 f73d 7eaf cd3d acb6 c5bd
00000300: 8362 4cbe 8b4d 073e b3ae 92bd fe44 483e
00000310: 7783 883d fb22 89bc 04d6 293e 0aaf 3a3d
00000320: 38ed 2b3d 732d 513c a359 2c3e 22f9 263d
00000330: 321e 61be 34e6 d4bd 8db0 16bd 4518 82bc
00000340: 09e8 48bd d9cf 38bd d4a2 b03d 1d48 2a3e
00000350: fc3e 813e 4bf5 a7bd f8ba 553e 97f4 08be
00000360: 883d 07bd d780 953b 6fb0 fa3d 0058 c93d
00000370: 7153 263e 6241 653e 277b 96bd 04e0 ebbd
00000380: b438 a2bd 6628 c0bd 7a9c 86bd cd0e cf3d
00000390: b1b9 f33d bb62 493e b5c3 8f3e 73a2 a5be
000003a0: 93e4 b23c 4120 c83d ee82 a53c 3b3e 3d3d
000003b0: 9ac9 633d 1548 373d fc92 083e 8dcd 0fbe
000003c0: 7ad5 1b3e e9b5 f43d 63e1 b3bc 223a c1bc
000003d0: 765c 0cbe 41dc 6a3e c977 8d3d f242 d73c
000003e0: 90b0 14be 382a 32be a9f0 453e c5a0 03bd
000003f0: c9e7 21be 91a6 eb3d f19f 4b3e 6225 54bd
0.022133779 0.05454477 -0.060068388 -0.097116984 -0.3586959 0.19067986 -0.3569785 -0.35949695
-0.2828839 -0.07549965 0.21787211 0.006848079 -0.05073801 0.11241471 -0.27518347 -0.21390453
-0.23262312 0.1438142 0.084716246 0.07441368 0.08016341 -0.07609818 0.058993246 -0.12090561
-0.010380226 0.27777115 0.163906 0.07246152 -0.049818173 -0.1570578 0.041619457 -0.079963885
0.02888944 0.18130748 -0.0673648 -0.102583565 -0.21260718 -0.08677233 0.057225913 -0.081616834
0.24745761 0.10037685 0.15865561 -0.14111334 0.017381277 0.16746195 0.16154815 -0.43101996
0.05952021 -0.16781282 0.1416743 0.020237936 0.013956182 -0.17931381 -0.01280931 0.13241151
-0.027513664 0.114438534 -0.1292763 0.25929925 -0.081502 0.18057357 0.0207393 0.16173463
-0.16519941 0.13754572 -0.06947071 -0.10166686 0.020511841 0.017559132 0.11623732 -0.07886473
-0.044647943 -0.015837127 0.025328545 -0.053077955 -0.012498185 -0.09112044 -0.1856998 -0.033924382
0.03701733 -0.039072074 0.043020494 0.19899823 0.14332569 -0.09508211 0.28246814 -0.20006739
-0.08068569 0.010621906 0.15569393 -0.052204974 -0.102253094 0.007818255 0.1215921 -0.011410058
-0.13997976 -0.2868637 -0.1580841 0.18946429 0.07083364 0.13528447 0.097082965 -0.2149157
-0.08193008 0.14523835 0.113291025 0.09323954 0.030505674 0.12532969 0.03891994 0.04105642
0.12692507 0.06416956 0.0959829 0.0016551608 0.027264012 0.2209267 0.14262263 0.0402051
-0.24912222 -0.04687065 0.103759155 0.027604464 -0.058266792 0.11959733 0.114773266 -0.049544986
-0.0764624 0.0990659 -0.05050552 0.22991988 0.07248467 -0.09560283 0.12836102 0.17511322
0.03529741 -0.1195349 0.08746764 0.0007590061 -0.021581192 -0.21823871 -0.04884225 0.006889168
0.022844285 0.008748994 -0.0019031521 0.04151995 0.30059612 -0.11593607 0.1027968 -0.13714163
-0.19497223 0.08630733 0.07960303 0.027391627 0.11979177 0.2989266 -0.021944959 -0.06102649
-0.06153032 -0.25259882 -0.033293705 0.16106187 0.08016175 0.14670132 0.1531694 -0.3097272
0.06327927 0.06924873 0.095210016 0.1408091 0.1397706 0.07209718 0.043363847 0.10828369
0.169393 0.19188127 0.09840609 -0.06217592 -0.03669465 0.25048792 0.17811456 0.12238744
-0.08019929 -0.19286263 0.16676688 0.11085857 -0.08356407 0.12067418 0.10043238 -0.096539825
-0.19959454 0.13213174 -0.071622275 0.19557568 0.066657 -0.016740313 0.16585547 0.045577087
0.041974276 0.012767184 0.16831069 0.040764935 -0.21984175 -0.1039547 -0.036789466 -0.015880713
-0.04904941 -0.045120094 0.08624807 0.16629072 0.25243366 -0.08201083 0.20872104 -0.13374554
-0.033017665 0.004562478 0.12240683 0.09831238 0.16242768 0.22388223 -0.07347708 -0.11517337
-0.079209715 -0.093827054 -0.06572814 0.10110245 0.11900652 0.19666569 0.28079 -0.323505
0.021837508 0.09771777 0.020204034 0.046201926 0.055612184 0.044746477 0.1333732 -0.14043255
0.15218154 0.11948759 -0.021958059 -0.02358729 -0.13707146 0.22935583 0.06907613 0.02627704
-0.14520478 -0.17398918 0.19330086 -0.032135744 -0.15811075 0.115063794 0.19885232 -0.051793464

fc2.bias f4 [128]
00000000: 71cf cbbc cf22 e7bc e4d6 973d 2a46 033e
00000010: db7e a03c 651a c7bd 2124 2abd 40ae 9abc
00000020: f3f3 1d3d 444d 3d3d 8e8d a23c 6c5f 593b
00000030: 6726 7e3d 266d 90bd d3c2 d9bb 772e a03d
00000040: 4ece 55bd 7d81 913d 72bb 5abd 034c 093d
00000050: 7203 50bc 897c e53d 6b50 34bd 5b2f 493e
00000060: 545c e3bd 3b9c 7c3c b9be 873c 9f6d bc3d
00000070: 61ad 0abd eac3 133d dbe9 e8bc 42f1 7ebc
00000080: 35b3 a33d 535d 6b3d 9346 113d fd8e a03d
00000090: 0a3b 5d3d cd2a 933c 4b21 f03d b712 bd3d
000000a0: dc77 1c3c bc56 b23d 3ba1 3b3d 8a09 723d
000000b0: f60c f73c b080 ae3d 9482 bbbd aa2a ff3d
000000c0: 16c0 5f3d fc53 2b3e 6660 1b3d 8456 50bd
000000d0: 09a9 b13d 2d6a 573d a79d a6bd ccbf 38b9
000000e0: 7724 373c 9d6b aebd 689a 4abd 65df 50bc
000000f0: 4d25 febd 0efb 92bd 4345 b5bd b059 3f3e
00000100: a933 8c3d e8c8 c83d c1f9 ac3d 9468 f73c
00000110: 0a2c ec3d d5f6 c9bc cfbf 2b3e 7f26 913d
00000120: fc5f db3d 90d8 f5bd 5cc0 a7bd cf79 5bbd
00000130: 4db4 e7bc d0a2 9c3d 4bdf 23be e601 103d
00000140: e27d 3c3e 5617 b53d 02db d03d b2ae 27bb
00000150: 87f4 e43d bdee d7bd 6931 a03d aff9 573e
00000160: 6667 69bc 44f8 c43c 2c80 efbc fbf9 1f3d
00000170: 1298 313e 080b 3a3d b88c b4bc 8542 9bbc
00000180: 1cd9 b23d 8f44 18bd f163 333b 1b58 213e
00000190: 99a3 913c b11f bdba 1431 c8bd 0ee7 183e
000001a0: 7382 1abc 0613 b23d 0f07 ab3d 89dd 91bd
000001b0: d777 93bd 1b80 013e 91f1 bd3d e35d 5a3d
000001c0: eb15 903d cb9d 143e 534b 2cbd f3ca ffbd
000001d0: 5e6c c83d 3ad6 afbc dce0 a23d 6223 fcbd
000001e0: 4b65 0ebd 5506 283c 8a5b 07bd 2ee7 1ebe
000001f0: c975 c13d e0b4 eabd 0d67 2e3e 3f01 ca3c
-0.02487919 -0.02821484 0.07414034 0.12819734 0.01959174 -0.09721831 -0.04153836 -0.018881917
0.038562726 0.046216264 0.01984289 0.0033168448 0.062048342 -0.070520684 -0.0066455393 0.078213625
-0.0521987 0.07104776 -0.053401418 0.033519756 -0.012696134 0.11205394 -0.044022005 0.19646971
-0.111015946 0.015418108 0.016570436 0.09200596 -0.033856753 0.03607551 -0.028431823 -0.01556045
0.079931654 0.057462048 0.035467695 0.07839773 0.054011382 0.017964745 0.117251 0.09232085
0.009550061 0.087079495 0.04580806 0.05909113 0.030157547 0.08520639 -0.09155765 0.124593094
0.054626547 0.16731256 0.03793373 -0.050863758 0.08674819 0.05259149 -0.081355385 -0.00017619057
0.0111781275 -0.08516619 -0.04946366 -0.012748574 -0.12409458 -0.07176791 -0.08851101 0.18686557
0.06845791 0.09803945 0.08446074 0.030201234 0.11531837 -0.024653831 0.16772388 0.07087421
0.10711667 -0.12004197 -0.081909865 -0.053582963 -0.028284216 0.076482415 -0.16003148 0.03515806
0.18407395 0.088423416 0.101980224 -0.0025586304 0.111794524 -0.105435826 0.07821924 0.2109134
-0.0142458435 0.024044164 -0.029235922 0.03905676 0.17343166 0.045420676 -0.022039756 -0.018952617
0.087328166 -0.037174758 0.0027372802 0.15756266 0.017778205 -0.0014429 -0.09774986 0.1493189
-0.009430516 0.08695035 0.08350956 -0.071223326 -0.07200592 0.12646525 0.09274591 0.053312194
0.070354305 0.14513318 -0.042064022 -0.12489881 0.097862944 -0.021464456 0.07953045 -0.12311436
-0.03476457 0.010255416 -0.033046283 -0.15517876 0.09446294 -0.114602804 0.17031498 0.024658797

fc3.weight f4 [2, 128]
00000000: 736c 363c b312 febd a654 d2bd 50b9 20be
00000010: df97 ffbd 2962 dbbd c04e 85be 7d1d 9f3d
00000020: 218e 48be a0ad 983d b4b8 5dbd 21af 78be
00000030: 39ac f0bd 9989 9abe 51b3 b2be 6d20 50be
00000040: 8273 61be 9f1a 413b a477 c2bd d141 54be
00000050: 1a88 cf3d b8f1 d2bd 0d1a 14be 1f5c 58be
00000060: 646c c0be 455c 1abe 4ddb 7cbe 19ea 72be
00000070: b309 4abd 209d 36be 5ad8 6b3d 3d43 6bbe
00000080: 81fa 91be 9110 babe 6456 efbd b704 9cbd
00000090: f351 d4bd 2634 933d 17cb 11be 7621 18be
000000a0: 40a5 3abe 2d5b 75be 787e 03be 9308 5cbd
000000b0: 22a2 2f3c c08f 55be bc1c 0fbd df13 84be
000000c0: 209e 64be 637e ba3e 7afc 40be 8e80 10be
000000d0: d14b 24be d650 afbe 99fd 8ebe d05b 6abd
000000e0: 48f1 813d cc0a 0b3c 91cc 08be eba9 13bf
000000f0: ddea 50be ab31 27be 0901 50bc 8f83 193e
00000100: 57f4 4d3c 8566 803d 01c3 973d 861d 8bbe
00000110: 2706 19be cf2f d63d ba37 0ebe 2dde 7ebe
00000120: 6a09 ed3c bef5 69be 0e0f edbd 44ec 0dbe
00000130: aa1d 45bb 03f2 02bd e36f 8dbe 46b2 8639
00000140: 04eb 1f3d 96af ddbd 36cd 1fbc 8283 5cbe
00000150: b447 3e3e 7d0c 96be d143 67be 904a 4c3e
00000160: 39b2 533e c46e 4fbe f75f bfbd 222e d6bd
00000170: a72b 4abe 2148 54be 3746 1cbe 0742 e5bd
00000180: 566e b6bd 28c1 233d d783 e83c f476 6b3e
00000190: b337 2dbe 8cc2 733d b4eb f4bd fd50 fe3c
000001a0: 1f93 0cbe 3adb bcbe dfc5 51bd 2287 9b3d
000001b0: b283 60be 7cea 18be b47a 2abe d6ee acbd
000001c0: ee3f fabd 8128 653d 0f69 2ebe 79a5 4ebe
000001d0: 0627 84be 4a5a e3bd bce4 27be 9d6a d93d
000001e0: 59ac 2fbe d810 3bbd ba2a 7c3d 3a21 d4bd
000001f0: 5ad0 e2be efff bb3c 611c 113d 1f35 88be
00000200: c7cf 7c3e d44a f73b acdf 87bc ad0e ecbc
00000210: 49d7 45bd d1d4 8e3d 868d 7e3c a527 723e
00000220: 4667 f43b 214c 06be a2b1 2f3e 4f75 c03c
00000230: 743e 0a3b b6f0 f83c 129b 563c 88c3 933c
00000240: 35cd 803d 3572 04be 4c1d 4a3d 0a19 063d
00000250: 80f9 50be 7a71 74bd fcc2 763d 4c68 93bd
00000260: 3eb0 033d 6141 9fbc 4293 213d 62ba 963c
00000270: de60 6d3b afff 303d 1918 55be 781b 64bd
00000280: a449 c73c 32a7 233c 7dfd 32bc 6228 0ebc
00000290: 54fa b237 bbb3 a2bd 0735 f7bd 7149 d6bd
000002a0: b884 d7bd ce82 7cbd ab4e 593d d512 d2be
000002b0: 6a22 79be 3381 073d 9be9 183e 648f 563d
000002c0: 4171 a53c cff3 32be a929 cb3c 6d6e 313c
000002d0: 9977 e8bd 2294 6b3c 280d 3ebd 8169 343e
000002e0: a05e 0dbe 6393 313e 75b3 b93c 7d47 dfbd
000002f0: 26a7 153b 14f9 1abd cc80 533e 87f8 93be
00000300: de92 2ebe 1238 85be 028b aa3e ebc4 193d
00000310: c046 70bd 7263 24be 82ee 9dbc 5601 723b
00000320: f30f 8fbe 4aa1 cb3c 03eb c33b bd49 323d
00000330: 3128 6f3e abb6 0abe e570 ae3b 1eb2 893e
00000340: e6ba a4be 6f71 dbbd 80ed ffbe c06c a7bc
00000350: 3913 6abe f503 4d3d 7951 ec3c 7358 47be
00000360: 92d3 b63e 5f37 7a3d 3898 4e3c fd72 28be
00000370: 652c a0bd ac64 3bbd 44f2 4a3c 4f31 c73b
00000380: 5ff6 0d39 9fa4 873e a0f2 a33e 5603 64be
00000390: b4f1 423c b7b1 833e bf59 08bd 3d38 92be
000003a0: eb8e 383d 10b7 83bd 37b5 a3ba de63 773e
000003b0: c400 993c e786 b4bc dbce d7bb 7f88 b4bc
000003c0: d4ee 8b3d 6527 89be 27d5 00bd 86bf 843d
000003d0: 2c01 5dbd b69d 80bd a339 cc3b 7a34 8cbd
000003e0: 4c67 963c 0fcd 913c e976 943e 4fac 2a3d
000003f0: 2e7c 71bb 6b5c 62be 8068 9cbe 5052 ab3c
0.011134255 -0.1240591 -0.10270052 -0.15695691 -0.12480139 -0.10712082 -0.26036644 0.07769296
-0.19585468 0.07454991 -0.054131225 -0.24285556 -0.11751599 -0.30183104 -0.34902433 -0.2032487
-0.22016719 0.002946533 -0.09495476 -0.20728232 0.10133381 -0.103000104 -0.14463063 -0.21128891
-0.37582695 -0.1507426 -0.24693032 -0.23722114 -0.049325656 -0.17833376 0.057579376 -0.22974868
-0.28511432 -0.36340764 -0.116863996 -0.07618087 -0.10367193 0.07187681 -0.14237629 -0.14856514
-0.182271 -0.23960562 -0.12841213 -0.053719115 0.010719808 -0.20855618 -0.034939513 -0.2579641
-0.22325945 0.3642455 -0.18846312 -0.1411154 -0.16044547 -0.3424136 -0.27927855 -0.057216465
0.06344849 0.008486461 -0.13359286 -0.5768115 -0.20402093 -0.1632754 -0.012695559 0.14991592
0.012570462 0.06269554 0.07410241 -0.27170962 -0.14943753 0.104583375 -0.13888445 -0.24889441
0.028935153 -0.2284765 -0.11575137 -0.1385966 -0.0030077496 -0.03196908 -0.27624425 0.00025691296
0.039042488 -0.10824506 -0.009753516 -0.21534541 0.1858204 -0.29306403 -0.22584464 0.19950318
0.20673455 -0.20257097 -0.09344476 -0.10458018 -0.19743215 -0.2073064 -0.1526116 -0.11194234
-0.08907764 0.03997913 0.028383179 0.22994596 -0.16915779 0.059511706 -0.11959019 0.031044478
-0.13727997 -0.36886007 -0.051214095 0.07594134 -0.21925238 -0.14933199 -0.1664837 -0.08443992
-0.12219225 0.05594683 -0.17032264 -0.2018031 -0.25811023 -0.11101206 -0.16395849 0.10616038
-0.17155589 -0.04567036 0.061564185 -0.103579 -0.44299585 0.022949187 0.035427455 -0.26603028
0.24688636 0.007546762 -0.016586147 -0.028815592 -0.048301015 0.06974185 0.0155366715 0.23647936
0.0074586 -0.13114978 0.17157605 0.023493437 0.0021094354 0.030388217 0.013098495 0.018037573
0.0628914 -0.12934192 0.049344346 0.032738723 -0.20407677 -0.059678532 0.060244545 -0.071976274
0.0321505 -0.019440355 0.039447077 0.018399421 0.0036221067 0.04321259 -0.20809974 -0.05569026
0.024327107 0.009988593 -0.010924694 -0.00867662 2.1335822e-05 -0.07944437 -0.12070661 -0.104632266
-0.10523361 -0.061648183 0.05305354 -0.41029993 -0.24329534 0.0330822 0.14932863 0.05238284
0.020195605 -0.17475818 0.024800139 0.01082955 -0.113509364 0.014378579 -0.046399266 0.17618372
-0.13805628 0.1734138 0.02266858 -0.10902307 0.0022835224 -0.037835196 0.20654601 -0.2890055
-0.17048213 -0.2601934 0.3330918 0.03754131 -0.058661222 -0.1605356 -0.019278768 0.0036927066
-0.27941856 0.024857182 0.0059789433 0.043527354 0.23355176 -0.13546245 0.0053235167 0.26893705
-0.32173842 -0.10714995 -0.49985886 -0.020437598 -0.22858895 0.0500526 0.028847443 -0.19467334
0.3570829 0.061087962 0.012609534 -0.16450115 -0.078209676 -0.045750305 0.012386862 0.006078876
0.00013538588 0.26492783 0.32021046 -0.22266898 0.011898447 0.25721523 -0.033288714 -0.2855853
0.045058172 -0.06431401 -0.0012489919 0.2415919 0.018677123 -0.022036983 -0.0065859384 -0.022037743
0.06832662 -0.26787868 -0.031453278 0.06481843 -0.053956196 -0.06280081 0.006232457 -0.068459466
0.018359803 0.017797975 0.2899697 0.041668233 -0.0036847699 -0.22105567 -0.30548477 0.020913273

fc3.bias f4 [2]
00000000: dbe0 6fbc f5fb b9bd
-0.014641012 -0.0908126
