critic_ckpt_0_.pth (torch_old, 101358 bytes, 18 tensors)

fcs1.weight f4 [64, 48]
0.13579017 0.01890764 -0.051812276 -0.020314556 -0.0638944 0.09085893 -0.018977642 0.060961794
0.12894131 0.057475045 0.09856943 0.091622815 -0.074100964 -0.14489877 -0.030177936 0.05249256
0.020940725 0.0010355541 0.09119261 -0.024605725 0.09925697 -0.15035254 -0.010548754 -0.0893645
0.077084556 0.00867557 -0.10524592 -0.048008706 0.092019215 0.0022927155 0.11008681 -0.033077564
0.028415997 -0.045862123 -0.10173795 -0.11274076 -0.0046890145 -0.11152492 -0.014216311 0.0059353723
0.19676791 -0.10131019 0.036796 -0.077112816 0.076003574 -0.0331181 0.007134335 0.06819756
-0.011013497 0.14638881 0.10906903 0.012063674 -0.05125881 0.113650955 -0.05136994 0.025617393
-0.009569299 0.019027214 0.0073570274 -0.089142166 0.06530525 0.16558345 -0.14189546 -0.15409349
-0.08825628 -0.046475224 -0.0039147995 -0.0033274977 -0.010765732 0.115309015 -0.02456934 -0.075209744
0.044071544 0.12665793 -0.039298944 -0.011986397 0.0754977 0.023059735 0.04772926 0.04531654
0.08000236 -0.028927857 -0.11270062 0.07680558 -0.040940166 0.044309326 0.053861715 0.046233237
-0.06621408 0.059213843 0.022912098 -0.06376917 -0.10974215 0.17467651 -0.04655576 0.051497336
0.06338079 -0.18049008 -0.022629645 -0.037617337 -0.00032255612 0.1326294 0.0048309923 -0.08026823
0.010477433 -0.14927116 -0.03315046 -0.020505449 0.054248527 -0.077632725 -0.03082788 0.009138924
-0.06454215 -0.03303576 -0.024639081 0.19720063 0.0011696408 -0.07354606 0.012063933 0.12685618
-0.1134354 -0.05800237 -0.038571365 0.018595554 0.013713987 0.15351021 0.0029305103 0.09766933
0.03166559 -0.11671819 -0.0036008947 -0.009650918 -0.09127259 0.15801539 -0.109438695 0.08468602
-0.04718903 -0.08598549 -0.025297446 -0.011670677 0.11087385 -0.12430146 0.07880836 -0.14025126
0.038413085 0.104448624 -0.042732276 -0.00312804 -0.04143355 -0.0054945806 -0.003264095 -0.05831258
0.08246896 -0.051531363 0.0067471187 -0.009668932 0.018422406 0.012398099 -0.026595097 0.06741545
-0.016469158 -0.021401683 0.024382751 0.036508255 -0.0011850666 -0.037428293 0.00526786 -0.14629506
0.0496387 -0.0016085056 -0.10842691 0.046660304 -0.022389758 0.11515209 -0.027000656 -0.059070718
0.22137944 -0.043492395 0.1410164 -0.02297922 0.044447515 0.11018831 0.12751964 -0.07402473
0.22284144 -0.17417447 -0.03311861 -0.010951258 -0.019134833 0.09837488 -0.11549895 0.093315475
0.04933281 0.123706214 -0.010785276 0.094079286 -0.092958644 0.11561563 -0.0041165957 -0.11516264
0.11980835 0.091657415 -0.022572955 -0.10574998 0.04936738 0.07398987 -0.1218034 0.020517677
0.1584034 0.10845132 0.030121561 0.10636615 -0.015109521 -0.077141434 0.045136344 -0.08879755
0.053736817 0.021665113 -0.06683568 0.015334935 0.068363175 -0.09446499 0.09192211 -0.021281896
0.033014596 0.048277795 0.059488405 -0.03756974 -0.04961511 0.095845684 0.099461846 -0.16348913
-0.08427676 0.049015533 0.019767215 0.052841324 -0.065921485 0.0883144 -0.01853946 0.024202842
0.042411666 -0.13342822 0.019244296 -0.12340464 0.15328537 -0.33860093 0.025912767 -0.055322982
0.013624929 -0.0040910803 0.1144667 0.07435367 0.038564805 -0.11948264 -0.014436399 0.034707785
00000000: 940c 0b3e 32e4 9a3c 1c39 54bd b66a a6bc
00000010: 11db 82bd 3f14 ba3d 0077 9bbc 13b3 793d
00000020: 3109 043e f46a 6b3d c5de c93d bea4 bb3d
00000030: 3fc2 97bd 5860 14be b837 f7bc 7002 573d
00000040: e28b ab3c 6ebb 873a 31c3 ba3d f291 c9bc
00000050: 3d47 cb3d 04f6 19be aed4 2cbc bc04 b7bd
00000060: 82de 9d3d fa23 0e3c 2c8b d7bd c7a4 44bd
00000070: 9274 bc3d 6241 163b 3275 e13d 577c 07bd
00000080: aac8 e83c ecd9 3bbd fd5b d0bd a1e4 e6bd
00000090: 4ea6 99bb 2d67 e4bd 88eb 68bc 837d c23b
000000a0: 877d 493e b87b cfbd 67b7 163d 53ed 9dbd
000000b0: c3a7 9b3d d8a6 07bd 24c7 e93b 2aab 8b3d
000000c0: f471 34bc f3e6 153e 955f df3d b7a6 453c
000000d0: c2f4 51bd d5c1 e83d 4969 52bd 91db d13c
000000e0: 8dc8 1cbc f6de 9b3c 3813 f13b 2b90 b6bd
000000f0: c2be 853d b58e 293e 0b4d 11be afca 1dbe
00000100: b5bf b4bd ce5c 3ebd b847 80bb 2612 5abb
00000110: c162 30bc 2227 ec3d a445 c9bc 9107 9abd
00000120: 5d84 343d 9eb2 013e eef7 20bd 9862 44bc
00000130: 8a9e 9a3d c5e7 bc3c c27f 433d d69d 393d
00000140: 47d8 a33d 1dfa ecbc 95cf e6bd 3e4c 9d3d
00000150: e0b0 27bd b27d 353d 1a9e 5c3d 105f 3d3d
00000160: 3f9b 87bd 378a 723d 27b2 bb3c 6999 82bd
00000170: 7ec0 e0bd 66de 323e 41b1 3ebd dfee 523d
00000180: cacd 813d 64d2 38be ce61 b9bc a314 1abd
00000190: c01c a9b9 00d0 073e 4d4d 9e3b ab63 a4bd
000001a0: 8aa9 2b3c 8ada 18be c7c8 07bd 0bfb a7bc
000001b0: b433 5e3d e8fd 9ebd c08a fcbc 6dbb 153c
000001c0: ad2e 84bd 8150 07bd e6d7 c9bc f6ee 493e
000001d0: a24e 993a 519f 96bd cda7 453c 96e6 013e
000001e0: d250 e8bd e593 6dbd 02fd 1dbd b455 983c
000001f0: a1b0 603c c831 1d3e ce0d 403b dc06 c83d
00000200: c7b3 013d f209 efbd fdfc 6bbb e21e 1ebc
00000210: 20ed babd c9ce 213e 6521 e0bd dd6f ad3d
00000220: 4949 41bd 2919 b0bd 973c cfbc 5e36 3fbc
00000230: d411 e33d c491 febd 4766 a13d 079e 0fbe
00000240: 0a57 1d3d 29e9 d53d 0a08 2fbd ceff 4cbb
00000250: 3ab6 29bd e20b b4bb 6dea 55bb 2cd9 6ebd
00000260: 7ce5 a83d 8d12 53bd ef16 dd3b 716a 1ebc
00000270: 96ea 963c 6521 4b3c f6dd d9bc 1d11 8a3d
00000280: 54ea 86bc 9552 afbc 56be c73c ae89 153d
00000290: 3d54 9bba 694e 19bd 039e ac3b 5fce 15be
000002a0: f351 4b3d 7ed4 d2ba ee0e debd e01e 3f3d
000002b0: ba6a b7bc dcd4 eb3d 7b30 ddbc 23f4 71bd
000002c0: 4bb1 623e 1525 32bd 9a66 103e eb3e bcbc
000002d0: 990e 363d 69aa e13d 8294 023e 479a 97bd
000002e0: 8c30 643e cb5a 32be 61a7 07bd e86c 33bc
000002f0: a7c0 9cbc c578 c93d b78a ecbd 2f1c bf3d
00000300: 3311 4a3d af59 fd3d bab4 30bc a4ac c03d
00000310: 1a61 bebd e3c7 ec3d 82e4 86bb 64da ebbd
00000320: 155e f53d e2b6 bb3d ebea b8bc 7293 d8bd
00000330: 7335 4a3d 0088 973d 1074 f9bd b014 a83c
00000340: 8034 223e ba1b de3d 7ec1 f63c 7fd6 d93d
00000350: ed8d 77bc 54fc 9dbd e3e0 383d 7ddb b5bd
00000360: 231b 5c3d 097b b13c 25e1 88bd 613f 7b3c
00000370: fe01 8c3d dc76 c1bd a941 bc3d 5f57 aebc
00000380: 503a 073d f0be 453d 1daa 733d bae2 19bd
00000390: 3739 4bbd be4a c43d a7b2 cb3d b269 27be
000003a0: 4b99 acbd 83c4 483d dbee a13c 2570 583d
000003b0: d801 87bd 2ede b43d 11e0 97bc 0a45 c63c
000003c0: dbb7 2d3d 68a1 08be 37a6 9d3c 92bb fcbd
000003d0: d7f6 1c3e 1a5d adbe 0347 d43c 5a9a 62bd
000003e0: 183b 5f3c 780e 86bb 846d ea3d bd46 983d
000003f0: 21f6 1d3d 50b3 f4bd a586 6cbc c029 0e3d

fcs1.bias f4 [64]
0.08009979 -0.16139743 -0.09630175 0.044283 -0.0023610524 0.02088063 0.034482628 -0.0008707848
0.03836592 0.08656899 -0.13896358 -0.046183 0.047290947 -0.0888056 0.028426213 0.07469195
0.053065315 -0.130439 -0.101158194 0.022663059 -0.11224192 0.0149709275 0.027936883 -0.040842887
0.14762539 -0.16283467 -0.18540955 0.093987234 -0.10132053 -0.15073557 -0.023741608 0.09136767
-0.086040154 0.028674722 0.055368077 -0.07202027 0.09350248 0.018640954 -0.09496181 -0.09253427
0.082037866 0.032100484 0.023524163 -0.039128155 -0.102373704 -0.059175104 0.060383603 -0.02912599
-0.078325205 0.013176926 -0.14160462 -0.050197784 -0.05755118 -0.15524682 -0.13820739 -0.109667026
-0.15942864 0.07647089 0.05089429 -0.12393733 -0.10161966 0.0941104 0.09981987 -0.011178069
00000000: 5c0b a43d 5e45 25be da39 c5bd 1762 353d
00000010: e3bb 1abb db0d ab3c a83d 0d3d 6145 64ba
00000020: 9525 1d3d 154b b13d 784c 0ebe 632a 3dbd
00000030: 27b4 413d b6df b5bd 17de e83c 18f8 983d
00000040: 045b 593d cd91 05be 072c cfbd e1a7 b93c
00000050: 17df e5bd 9f48 753c e4db e43c df4a 27bd
00000060: 1c2b 173e 22be 26be 00dc 3dbe 617c c03d
00000070: 2381 cfbd 6d5a 1abe c37d c2bc f91e bb3d
00000080: d235 b0bd 40e7 ea3c a3c9 623d 5d7f 93bd
00000090: 3a7e bf3d eab4 983c 567b c2bd 9b82 bdbd
000000a0: 7803 a83d cc7b 033d bfb5 c03c d844 20bd
000000b0: 4ea9 d1bd 9861 72bd cc54 773d a199 eebc
000000c0: f768 a0bd 09e4 573c cd00 11be 319c 4dbd
000000d0: c9ba 6bbd 06f9 1ebe 3d86 0dbe 1b99 e0bd
000000e0: 4341 23be c59c 9c3d 8876 503d dbd2 fdbd
000000f0: f81d d0bd f4bc c03d 5c6e cc3d 3824 37bc

bn1.weight f4 [64]
0.5066727 0.11938411 0.79624844 0.35958612 0.5471363 0.39818352 0.6730008 0.61662203
0.38475662 0.41976392 0.49851722 0.103799105 0.47033072 0.12565273 0.8870942 0.75437385
0.44705063 0.8451366 0.5441497 0.9568759 0.600358 0.73570573 0.5764599 0.21678102
0.0309937 0.30128413 0.89120156 0.7556308 0.33664596 0.18896878 0.9923705 0.55419636
0.06896818 0.32313496 0.534376 0.4522007 0.30665123 0.64815426 0.16067517 0.7093864
0.16256905 0.9031605 0.901136 0.9955953 0.009836435 0.3165933 0.39979511 0.038166583
0.72464055 0.2972662 0.49080908 0.73931354 0.10946965 0.568824 0.28086644 0.8508427
0.9372098 0.3827145 0.17779213 0.79251903 0.14422154 0.97459304 0.8993953 0.71442753
00000000: 4db5 013f a87f f43d f0d6 4b3f ac1b b83e
00000010: 2011 0c3f b6de cb3e c849 2c3f f1da 1d3f
00000020: d2fe c43e 4ceb d63e a63d ff3e a094 d43d
00000030: 30cf f03e 1cab 003e 9b18 633f a51e 413f
00000040: d2e3 e43e df5a 583f 654d 0b3f d2f5 743f
00000050: 10b1 193f 3657 3c3f e092 133f d8fb 5d3e
00000060: 80e6 fd3c ea41 9a3e c925 643f 0571 413f
00000070: dc5c ac3e 0881 413e fe0b 7e3f d0df 0d3f
00000080: 303f 8d3d f271 a53e decc 083f da86 e73e
00000090: 6401 9d3e 70ed 253f 0888 243e 599a 353f
000000a0: 8078 263e 8735 673f d9b0 663f 55df 7e3f
000000b0: 0029 213c 8418 a23e f2b1 cc3e 9054 1c3d
000000c0: 0b82 393f 4633 983e 544b fb3e a743 3d3f
000000d0: a031 e03d 739e 113f bacd 8f3e d4d0 593f
000000e0: fbec 6f3f 28f3 c33e 240f 363e 87e2 4a3f
000000f0: d0ae 133e ee7e 793f c53e 663f b9e4 363f

bn1.bias f4 [64]
0.0 0.0 0.0 0.0 0.0 0.0 0.0 0.0
0.0 0.0 0.0 0.0 0.0 0.0 0.0 0.0
0.0 0.0 0.0 0.0 0.0 0.0 0.0 0.0
0.0 0.0 0.0 0.0 0.0 0.0 0.0 0.0
0.0 0.0 0.0 0.0 0.0 0.0 0.0 0.0
0.0 0.0 0.0 0.0 0.0 0.0 0.0 0.0
0.0 0.0 0.0 0.0 0.0 0.0 0.0 0.0
0.0 0.0 0.0 0.0 0.0 0.0 0.0 0.0
00000000: 0000 0000 0000 0000 0000 0000 0000 0000
00000010: 0000 0000 0000 0000 0000 0000 0000 0000
00000020: 0000 0000 0000 0000 0000 0000 0000 0000
00000030: 0000 0000 0000 0000 0000 0000 0000 0000
00000040: 0000 0000 0000 0000 0000 0000 0000 0000
00000050: 0000 0000 0000 0000 0000 0000 0000 0000
00000060: 0000 0000 0000 0000 0000 0000 0000 0000
00000070: 0000 0000 0000 0000 0000 0000 0000 0000
00000080: 0000 0000 0000 0000 0000 0000 0000 0000
00000090: 0000 0000 0000 0000 0000 0000 0000 0000
000000a0: 0000 0000 0000 0000 0000 0000 0000 0000
000000b0: 0000 0000 0000 0000 0000 0000 0000 0000
000000c0: 0000 0000 0000 0000 0000 0000 0000 0000
000000d0: 0000 0000 0000 0000 0000 0000 0000 0000
000000e0: 0000 0000 0000 0000 0000 0000 0000 0000
000000f0: 0000 0000 0000 0000 0000 0000 0000 0000

bn1.running_mean f4 [64]
0.0 0.0 0.0 0.0 0.0 0.0 0.0 0.0
0.0 0.0 0.0 0.0 0.0 0.0 0.0 0.0
0.0 0.0 0.0 0.0 0.0 0.0 0.0 0.0
0.0 0.0 0.0 0.0 0.0 0.0 0.0 0.0
0.0 0.0 0.0 0.0 0.0 0.0 0.0 0.0
0.0 0.0 0.0 0.0 0.0 0.0 0.0 0.0
0.0 0.0 0.0 0.0 0.0 0.0 0.0 0.0
0.0 0.0 0.0 0.0 0.0 0.0 0.0 0.0
00000000: 0000 0000 0000 0000 0000 0000 0000 0000
00000010: 0000 0000 0000 0000 0000 0000 0000 0000
00000020: 0000 0000 0000 0000 0000 0000 0000 0000
00000030: 0000 0000 0000 0000 0000 0000 0000 0000
00000040: 0000 0000 0000 0000 0000 0000 0000 0000
00000050: 0000 0000 0000 0000 0000 0000 0000 0000
00000060: 0000 0000 0000 0000 0000 0000 0000 0000
00000070: 0000 0000 0000 0000 0000 0000 0000 0000
00000080: 0000 0000 0000 0000 0000 0000 0000 0000
00000090: 0000 0000 0000 0000 0000 0000 0000 0000
000000a0: 0000 0000 0000 0000 0000 0000 0000 0000
000000b0: 0000 0000 0000 0000 0000 0000 0000 0000
000000c0: 0000 0000 0000 0000 0000 0000 0000 0000
000000d0: 0000 0000 0000 0000 0000 0000 0000 0000
000000e0: 0000 0000 0000 0000 0000 0000 0000 0000
000000f0: 0000 0000 0000 0000 0000 0000 0000 0000

bn1.running_var f4 [64]
1.0 1.0 1.0 1.0 1.0 1.0 1.0 1.0
1.0 1.0 1.0 1.0 1.0 1.0 1.0 1.0
1.0 1.0 1.0 1.0 1.0 1.0 1.0 1.0
1.0 1.0 1.0 1.0 1.0 1.0 1.0 1.0
1.0 1.0 1.0 1.0 1.0 1.0 1.0 1.0
1.0 1.0 1.0 1.0 1.0 1.0 1.0 1.0
1.0 1.0 1.0 1.0 1.0 1.0 1.0 1.0
1.0 1.0 1.0 1.0 1.0 1.0 1.0 1.0
00000000: 0000 803f 0000 803f 0000 803f 0000 803f
00000010: 0000 803f 0000 803f 0000 803f 0000 803f
00000020: 0000 803f 0000 803f 0000 803f 0000 803f
00000030: 0000 803f 0000 803f 0000 803f 0000 803f
00000040: 0000 803f 0000 803f 0000 803f 0000 803f
00000050: 0000 803f 0000 803f 0000 803f 0000 803f
00000060: 0000 803f 0000 803f 0000 803f 0000 803f
00000070: 0000 803f 0000 803f 0000 803f 0000 803f
00000080: 0000 803f 0000 803f 0000 803f 0000 803f
00000090: 0000 803f 0000 803f 0000 803f 0000 803f
000000a0: 0000 803f 0000 803f 0000 803f 0000 803f
000000b0: 0000 803f 0000 803f 0000 803f 0000 803f
000000c0: 0000 803f 0000 803f 0000 803f 0000 803f
000000d0: 0000 803f 0000 803f 0000 803f 0000 803f
000000e0: 0000 803f 0000 803f 0000 803f 0000 803f
000000f0: 0000 803f 0000 803f 0000 803f 0000 803f

fc2.weight f4 [128, 68]
-0.06732463 -0.13153099 0.0670759 0.003626451 -0.017479366 -0.11807444 -0.033464946 -0.029375445
-0.052200336 -0.015823716 0.0014854504 -0.010720594 0.13731429 -0.10350248 0.022838334 -0.059892364
0.038760103 0.036893245 0.036889557 0.065812536 -0.07078083 -0.10763601 0.06998311 0.0072858967
-0.0050034365 -0.009177009 0.08561329 0.06414261 -0.07158467 0.05741629 0.020933101 -0.06220506
0.0026979323 0.06501969 -0.117630035 -0.0464546 -0.06313938 0.047597595 -0.08067393 -0.22576739
0.013870129 -0.11939856 0.035923813 -0.049098372 0.014414422 -0.023362862 0.019341234 -0.0025281524
-0.042227343 -0.004651522 0.017129336 -0.09949201 -0.067660645 -0.10421455 0.06595556 -0.058700684
-0.07731518 0.0364223 0.01933645 -0.045440145 -0.03259791 -0.04665156 0.0045672064 0.04648319
-0.04658444 0.007393411 0.0039183157 -0.0048658834 0.101065025 -0.042931348 -0.04033392 -0.060055323
-0.05364424 -0.07487689 0.10450972 -0.008317105 -0.009988342 -0.106332555 0.014466428 -0.04968103
-0.030010352 0.14134869 0.024789356 -0.07287571 0.050125357 -0.011744593 0.107263386 0.039362244
0.03511022 -0.10296937 0.030606892 -0.111796 -0.016210409 -0.046230543 0.104133844 -0.060190447
0.02417496 -0.009981335 0.09720706 -0.10520319 -0.02053057 0.07569125 -0.05072883 0.0023161934
-0.14400041 -0.1222395 -0.107897565 -0.07774587 -0.013986794 -0.13159947 -0.11483172 -0.017924745
0.06424037 -0.0050683175 -0.083461694 0.10296079 -0.046710804 0.069030285 -0.047140665 0.06336297
-0.006021267 0.029362012 0.025404314 -0.009785368 -0.09347063 0.122718565 -0.0014255202 -0.058755692
0.063037455 -0.031602412 0.03934968 0.040237572 0.18983455 0.06745332 -0.17060629 0.029931715
0.03444787 0.07110196 0.016393488 0.089227185 0.07552833 0.09908439 -0.13952771 0.054750137
-0.11117471 0.09050624 -0.14037377 -0.066493325 -0.19525026 0.01324344 0.0102179255 -0.07681349
-0.07834564 0.034402426 -0.045580853 -0.0029320293 0.0036349327 -0.0027770444 -0.017251639 -0.034961537
-0.030552091 -0.06387378 -0.035781544 -0.05736101 0.0052617067 -0.012380225 -0.041792396 -0.02004969
-0.07253205 -0.06622252 -0.004832667 -0.143747 0.046911795 -0.09059888 -0.08428124 -0.055971164
-0.0074830856 0.007973747 -0.057790775 -0.11378755 0.022676148 0.010737648 0.052514017 -0.16431025
-0.027332926 -0.011353722 -0.0503704 -0.0708166 0.08398348 -0.008476205 -0.052520897 -0.3451723
-0.13547178 -0.08148095 -0.2326414 -0.30700713 -0.074763514 -0.0041739815 0.0970512 -0.09719089
-0.09481149 0.0026645395 0.054395635 0.11347165 -0.055571027 -0.09394504 -0.028091671 0.029301682
-0.061491325 -0.00707376 -0.028669244 -0.093881 -0.10158568 -0.044174444 -0.050186276 0.027522117
0.04412184 -0.077765696 -0.038985547 0.043253705 -0.07923767 0.054604597 0.0839312 0.043021023
0.04635833 -0.059743583 -0.032397125 0.0075762984 -0.030344144 0.009699305 0.027484275 -0.08646706
-0.012915677 0.0060310527 -0.039982744 -0.068518385 -0.08704321 -0.008009495 -0.01940049 0.021347035
-0.023041202 0.032599077 -0.02093315 -0.01978614 0.049596693 0.008940424 -0.017343536 0.055805072
-0.11041137 0.03903527 -0.08024433 -0.015581659 -0.047042962 0.053584248 -0.09907274 -0.05970032
00000000: 7fe1 89bd 0fb0 06be 175f 893d c0a9 6d3b
00000010: e330 8fbc 03d1 f1bd 8a12 09bd c6a4 f0bc
00000020: 05d0 55bd bda0 81bc 72b3 c23a 6ea5 2fbc
00000030: 1e9c 0c3e 1cf9 d3bd 7517 bb3c b251 75bd
00000040: eac2 1e3d 5f1d 173d 8119 173d b9c8 863d
00000050: 8af5 90bd 4570 dcbd 4e53 8f3d 88be ee3b
00000060: def3 a3bb 2a5b 16bc 0556 af3d 335d 833d
00000070: fc9a 92bd 582d 6b3d e57b ab3c bcca 7ebd
00000080: cbcf 303b 0b29 853d 04e8 f0bd 2e47 3ebd
00000090: 384f 81bd b2f5 423d 6038 a5bd 912f 67be
000000a0: 8a3f 633c 3b87 f4bd d924 133d 601b 49bd
000000b0: 782a 6c3c 7963 bfbc 8271 9e3c 5caf 25bb
000000c0: 94f6 2cbd cb6b 98bb d252 8c3c 78c2 cbbd
000000d0: aa91 8abd 706e d5bd b513 873d 2170 70bd
000000e0: 6c57 9ebd 8d2f 153d 7a67 9e3c 721f 3abd
000000f0: 6385 05bd b515 3fbd 81a8 953b 2865 3e3d
00000100: 53cf 3ebd 6d44 f23b 3765 803b fd71 9fbb
00000110: 2efb ce3d c8d8 2fbd 2e35 25bd 92fc 75bd
00000120: 10ba 5bbd 0e59 99bd 3109 d63d 7744 08bc
00000130: 25a6 23bc e2c4 d9bd 9904 6d3c 567e 4bbd
00000140: 45d8 f5bc b6bd 103e 0c13 cb3c dc3f 95bd
00000150: 3f50 4d3d 656c 40bc e8ac db3d 4e3a 213d
00000160: bccf 0f3d 9be1 d2bd 4ebb fa3c 4df5 e4bd
00000170: b1cb 84bc 3d5c 3dbd 2044 d53d 428a 76bd
00000180: 910a c63c c188 23bc 7f14 c73d c574 d7bd
00000190: ba2f a8bc 0404 9b3d 09c9 4fbd 47cb 173b
000001a0: d874 13be b458 fabd 66f9 dcbd 3a39 9fbd
000001b0: de28 65bc 03c2 06be e52c ebbd ead6 92bc
000001c0: 7590 833d 2114 a6bb f7ed aabd 1bdd d23d
000001d0: d453 3fbd c05f 8d3d 9216 41bd 72c4 813d
000001e0: 0c4e c5bb 9a88 f03c b51c d03c cf52 20bc
000001f0: 886d bfbd df53 fb3d 85d8 baba cfa9 70bd
00000200: c819 813d 8871 01bd 212d 213d 27d0 243d
00000210: fd63 423e f724 8a3d 6ab3 2ebe 5b33 f53c
00000220: 3619 0d3d e89d 913d a34b 863c bebc b63d
00000230: 99ae 9a3d c2ec ca3d 5ae0 0ebe ae41 603d
00000240: 91af e3bd 565b b93d 24be 0fbe a72d 88bd
00000250: afef 47be 03fb 583c 1669 273c 6450 9dbd
00000260: ae73 a0bd 8fe9 0c3d fdb2 3abd 4a27 40bb
00000270: 0d38 6e3b 13ff 35bb 4f53 8dbc d433 0fbd
00000280: 6148 fabc 42d0 82bd ab8f 12bd 61f3 6abd
00000290: 656a ac3b 6dd6 4abc 812e 2bbd 3f3f a4bc
000002a0: af8b 94bd ac9f 87bd 595b 9ebb 6a32 13be
000002b0: 9526 403d e88b b9bd a59b acbd 0542 65bd
000002c0: ac34 f5bb 52a4 023c 05b6 6cbd 7209 e9bd
000002d0: 54c3 b93c f6ec 2f3c f018 573d f240 28be
000002e0: 4de9 dfbc f604 3abc 3151 4ebd 4b08 91bd
000002f0: 88ff ab3d c8df 0abc 2720 57bd 6cba b0be
00000300: 1db9 0abe 7cdf a6bd 8c39 6ebe 0a30 9dbe
00000310: 9d1d 99bd e5c5 88bb c8c2 c63d 040c c7bd
00000320: 872c c2bd 8e9f 2e3b f5cd 5e3d d363 e83d
00000330: 729e 63bd 4266 c0bd 8120 e6bc 150a f03c
00000340: 54de 7bbd 00cb e7bb c3db eabc af44 c0bd
00000350: 270c d0bd 43f0 34bd 2090 4dbd 1076 e13c
00000360: 1ab9 343d 9f43 9fbd 4faf 1fbd cc2a 313d
00000370: 5c47 a2bd 12a9 5f3d 1fe4 ab3d d036 303d
00000380: 3be2 3d3d b0b5 74bd d9b2 04bd 9942 f83b
00000390: 4894 f8bc d5e9 1e3c b426 e13c a415 b1bd
000003a0: 479c 53bc 23a0 c53b f2c4 23bd 5e53 8cbd
000003b0: b643 b2bd 423a 03bc c7ed 9ebc fadf ae3c
000003c0: e7c0 bcbc 9c86 053d ff7b abbc 8b16 a2bc
000003d0: e725 4b3d db7a 123c 0814 8ebc dc93 643d
000003e0: 5b1f e2bd 73e3 1f3d 2457 a4bd 374a 7fbc
000003f0: 1fb0 40bd 287b 5b3d a6e6 cabd 5388 74bd

fc2.bias f4 [128]
-0.113228574 0.015679827 0.037964046 -0.029006325 -0.08798057 -0.020418046 0.117195316 0.0078066653
0.17093657 0.014413065 -0.09472509 0.09513302 -0.04700634 -0.11699471 -0.094793916 -0.062064327
-0.12399274 -0.031804767 -0.07195075 0.06480511 0.10797543 0.036926832 -0.04743704 0.08904428
-0.12988919 -0.015954573 0.019467006 0.041056495 -0.04517945 0.06866512 0.003664734 0.037257213
-0.03726468 0.014788486 0.095163554 0.06587189 -0.003049896 -0.11501928 -0.05797082 0.020302322
0.059131302 -0.13896143 -0.07520888 0.040428367 0.003252187 -0.06446532 -0.15445323 -0.0047126715
-0.05898599 0.028440561 0.11489223 -0.0050534667 0.07708279 0.0847786 -0.048751272 0.010574371
0.006928939 0.03505998 0.009328004 -0.053428993 0.006376619 -0.012649504 -0.14501548 0.046160895
-0.1463142 0.09933721 -0.08221613 -0.03365065 -0.03773838 0.052622303 -0.14176458 0.005552741
0.02396169 -0.09819995 -0.062423702 0.13549249 0.04314667 0.10304675 0.039007995 -0.061032645
-0.071348295 -0.064256996 -0.11936681 0.08606399 0.0705221 -0.03124188 -0.09779973 -0.053682044
0.0009007971 -0.010809722 0.035752445 -0.08205207 -0.07157963 -0.07961358 0.07502619 0.09671468
-0.077444986 0.03249236 0.011256922 0.0777722 0.06817942 -0.06171703 -0.09842292 0.08453066
0.090646334 -0.06224149 -0.0034921835 0.037634183 -0.11441861 -0.11861742 -0.02594538 -0.023085361
-0.029354008 0.0443478 -0.09713997 -0.07754902 -0.04351678 0.043505993 -0.1185227 -0.11723286
0.04564868 -0.15015769 -0.053795822 0.063007385 0.002706003 0.023512295 -0.027477432 0.06881803
00000000: 62e4 e7bd fb72 803c 3080 1b3d ac9e edbc
00000010: 282f b4bd bf43 a7bc 1904 f03d 0ecf ff3b
00000020: ff09 2f3e c724 6c3c 3aff c1bd 1ad5 c23d
00000030: b889 40bd ec9a efbd 5023 c2bd 2a37 7ebd
00000040: e8ef fdbd b745 02bd ea5a 93bd 8bb8 843d
00000050: 3922 dd3d 9740 173d 574d 42bd d95c b63d
00000060: ac01 05be 2ab3 82bc 4579 9f3c db2a 283d
00000070: 160e 39bd 4ca0 8c3d 092c 703b 059b 183d
00000080: d9a2 18bd 684b 723c 1ce5 c23d d7e7 863d
00000090: c4e0 47bb 3a8f ebbd d072 6dbd 0e51 a63c
000000a0: aa33 723d e84b 0ebe 1d07 9abd 3798 253d
000000b0: a522 553b 6506 84bd fd28 1ebe c16c 9abb
000000c0: 4b9b 71bd 2efc e83c 9e4c eb3d 8d97 a5bb
000000d0: 95dd 9d3d 67a0 ad3d 6aaf 47bd 2040 2d3c
000000e0: 270c e33b 0e9b 0f3d 7cd4 183c 5cd8 5abd
000000f0: f5f2 d03b dd3f 4fbc f07e 14be 3513 3d3d
00000100: 64d3 15be 4f71 cb3d ee60 a8bd 44d5 09bd
00000110: 8f93 1abd 7c8a 573d bc2a 11be c4f3 b53b
00000120: 4e4b c43c 0e1d c9bd ffaf 7fbd 8bbe 0a3e
00000130: 90ba 303d 2d0a d33d d9c6 1f3d 5efd 79bd
00000140: 0e1f 92bd 2c99 83bd 9676 f4bd 5142 b03d
00000150: e46d 903d f9ee ffbc 3a4b c8bd b4e1 5bbd
00000160: 7823 6c3a 431b 31bc 2871 123d ea0a a8bd
00000170: 5798 92bd 720c a3bd 55a7 993d 5912 c63d
00000180: 7a9b 9ebd b516 053d f46e 383c 0847 9f3d
00000190: a7a1 8b3d ffca 7cbd f591 c9bd 691e ad3d
000001a0: c9a4 b93d eff0 7ebd 1edd 64bb 4d26 1a3d
000001b0: 4e54 eabd b1ed f2bd 688b d4bc 831d bdbc
000001c0: d177 f0bc 0aa6 353d 52f1 c6bd 05d2 9ebd
000001d0: a73e 32bd 5733 323d 08bc f2bd c817 f0bd
000001e0: 1cfa 3a3d f0c2 19be 0259 5cbd 040a 813d
000001f0: 3257 313b db9c c03c 5a18 e1bc 78f0 8c3d

fc3.weight f4 [1, 128]
0.0033509964 0.0034752258 0.0071960115 0.00037035643 -0.013087459 0.0068370793 0.0033653893 0.0059523187
0.004303225 0.0033651008 0.007690738 0.0029850386 -0.003346353 -0.011715211 -0.0023231755 -0.0036230937
-0.0050151357 0.0054442543 -0.0019020766 -0.012443016 -0.003211157 -0.0017623161 -0.0029618952 0.006640339
-0.007224375 5.666957e-06 0.0056923763 -0.005435279 0.00470127 -0.00050196436 0.0010482384 0.00392513
-0.0053671733 -0.002137396 0.00444919 -0.022843024 -0.007011043 -0.00537415 0.0038980911 0.002660804
0.0036064624 -0.023171447 0.018663393 0.023888709 -0.0055985143 -0.00074077095 -0.0073349713 -0.019538958
0.0034892673 -0.01660142 -0.006515929 0.00930553 0.00603147 0.0012042084 -0.0037189024 -0.0044259997
0.0049743718 0.007169299 0.0022517622 -0.004811762 0.002592817 0.009638611 -0.00042380212 0.012204351
-0.003107059 -0.0012461046 -0.003956179 -0.013415144 0.0014977972 0.0054324134 0.005891205 -0.00278254
-0.005624303 0.001684373 0.008423821 0.004768561 -0.0019109956 0.0058256327 -0.0036018698 -0.0100688245
-0.01001601 0.0004249817 -0.002446539 0.0018462902 0.0036487072 0.004917636 -0.004726119 -0.00023473246
-0.0044622933 -0.010817275 -0.0033987402 -0.0011685985 -0.0036084016 -0.0023286687 -0.015349416 -0.0049891425
-0.0016818099 0.003929211 -0.00681294 0.003309255 0.000650063 0.000834187 0.0031448463 -0.00039284953
0.0038585397 0.0049711433 -0.004216834 -0.009234989 -0.021563172 -0.0034103747 0.0023739638 -0.00022095212
-0.0060516037 -0.003415317 0.008072805 0.017332137 0.0033511184 -0.0075527886 -0.00011015693 -0.022911511
-0.013489717 -0.0010874601 -0.0015231271 0.0043197004 0.0042239767 -0.0024275163 0.009867051 0.006800339
00000000: 649c 5b3b 9dc0 633b 85cc eb3b 662c c239
00000010: c86c 56bc 9409 e03b dd8d 5c3b ab0b c33b
00000020: 1102 8d3b 0689 5c3b 9602 fc3b a3a0 433b
00000030: 7d4e 5bbb 28f1 3fbc 6b40 18bb 6d71 6dbb
00000040: 0256 a4bb b765 b23b 1a4f f9ba cbdd 4bbc
00000050: 4672 52bb 84fd e6ba 5b1c 42bb 3397 d93b
00000060: 73ba ecbb ca26 be36 1d87 ba3b 6d1a b2bb
00000070: 1c0d 9a3b 4296 03ba 0b65 893a 609e 803b
00000080: 1ddf afbb 8e13 0cbb 83ca 913b 4b21 bbbc
00000090: e4bc e5bb a319 b0bb 1e77 7f3b e260 2e3b
000000a0: 665a 6c3b 0cd2 bdbc f9e3 983c 41b2 c33c
000000b0: be73 b7bb 4c30 42ba 335a f0bb 2a10 a0bc
000000c0: 31ac 643b b3ff 87bc 9383 d5bb 3976 183c
000000d0: a3a3 c53b 87d6 9d3a d4b8 73bb fa07 91bb
000000e0: 0e00 a33b 70ec ea3b 4d92 133b fcab 9dbb
000000f0: 40ec 293b 44eb 1d3c c231 deb9 c2f4 473c
00000100: cd9f 4bbb 5554 a3ba d6a2 81bb 31cb 5bbc
00000110: bc51 c43a 6302 b23b 020b c13b 465b 36bb
00000120: 134c b8bb 2ec6 dc3a 1104 0a3c 9741 9c3b
00000130: 5f7a faba f3e4 be3b 590d 6cbb b6f7 24bc
00000140: 311a 24bc 14d0 de39 1d56 20bb 38ff f13a
00000150: 261f 6f3b 1f24 a13b 8fdd 9abb 8422 76b9
00000160: 6e38 92bb f13a 31bc 66bd 5ebb a92b 99ba
00000170: ef7a 6cbb 949c 18bb 1e7c 7bbc f67b a3bb
00000180: 2d70 dcba 9cc0 803b 153f dfbb 16e0 583b
00000190: fd68 2a3a 58ad 5a3a c419 4e3b 5ff7 cdb9
000001a0: 8edf 7c3b f9e4 a23b 5e2d 8abb 5a4e 17bc
000001b0: 40a5 b0bc 9880 5fbb 8194 1b3b 62af 67b9
000001c0: 884c c6bb 83d3 5fbb cc43 043c 20fc 8d3c
000001d0: 709e 5b3b 627d f7bb 0d04 e7b8 ecb0 bbbc
000001e0: f903 5dbc 1b89 8eba aaa3 c7ba 468c 8d3b
000001f0: 4969 8a3b f716 1fbb 69a9 213c 61d5 de3b

fcs4.weight f4 [64, 48]
-0.037684765 0.030017827 0.056386933 -0.099402525 -0.05787523 0.17291081 -0.058784213 -0.08762396
0.018345859 -0.018146574 -0.09536203 0.07107655 -0.09807727 0.2006611 -0.025166836 0.06929826
0.06700511 0.095730856 -0.036178574 0.009826765 0.025905557 0.16627598 0.053035557 0.075497895
-0.12864158 0.024315171 -0.010524793 0.09829494 -0.046225306 0.08425226 -0.064380534 0.08855605
-0.018956872 0.15659826 0.07107695 0.020593852 -0.09658791 0.060209386 0.08804641 -0.06186503
0.09781224 0.14161375 -0.074301526 0.04378715 -0.032936066 0.20174304 -0.034566894 -0.05414387
0.12771177 -0.06719822 -0.070739724 0.071758285 -0.07469105 -0.014697691 0.120016225 -0.017234556
0.11927536 0.054334708 0.0075193434 -0.028056914 -0.05762955 -0.1821818 -0.119918026 -0.121767186
-0.089400865 -0.09979027 0.020115655 -0.044998623 0.07864594 -0.17093019 0.09607738 0.111015625
-0.008901699 0.076602474 0.051918566 -0.1165145 -0.1013115 -0.20847054 -0.015107281 0.04481002
0.05589055 -0.012187348 0.10619491 0.09620887 0.032067176 0.04030077 -0.0618793 -0.10308953
-0.021421809 -0.13488364 0.08827563 0.0717412 0.12701125 -0.01518357 -0.11339334 0.05227325
0.09436235 -0.09247011 -0.050235942 0.12214845 -0.07563435 -0.023761932 0.06475975 0.054881785
-0.030828038 0.18207575 0.025327623 0.028969672 -0.07570081 0.099798374 0.065918535 0.12795798
-0.027468087 0.07868021 -0.023052072 -0.05171613 -0.031606793 -0.07483541 -0.016537318 -0.027416466
0.16689968 -0.0065836404 0.008015203 0.061887495 0.10830062 0.01815898 0.008721465 0.031562068
0.1283607 -0.023298657 -0.02344444 0.056395225 -0.030649953 -0.11527982 0.095519036 0.03614247
-0.039034843 -0.07032141 -0.09991509 -0.0697449 -0.06975747 0.1101023 -0.12933053 -0.012634988
0.090372436 0.107454464 -0.09229035 0.15548599 0.014683737 -0.0049189627 0.068765156 -0.03767046
0.16913104 -0.058671772 0.0137077365 -0.042039137 0.005296603 -0.01202014 -0.027520478 0.052757673
0.04279301 0.15022732 0.08264756 -0.0060788104 -0.014285307 -0.041241936 -0.12464894 0.02597514
0.0884109 0.18049501 0.061068177 -0.060528975 -0.010713319 -0.030562894 -0.09411869 0.13393994
0.048907075 0.13085355 0.0027333887 -0.10340885 0.073257886 0.0727224 -0.080280155 -0.061178856
0.09853738 0.0007907622 -0.057661463 -0.04764995 -0.030094624 -0.068224885 -0.0060486863 -0.04036293
0.019329121 0.08571421 -0.094387785 0.008053981 0.00874669 0.023800196 -0.039728466 0.009843316
-0.07084626 0.060898166 0.083665945 0.19031544 -0.0036505493 0.00043096388 -0.0885533 0.0378819
0.01992841 0.13717425 -0.08079125 0.1015962 0.09519287 0.10070941 0.045379553 0.032616697
0.14848438 -0.04382677 -0.038362004 0.15155569 0.040159263 -0.073098615 0.017287433 -0.0023372585
0.14962766 0.0034120744 -0.06786727 0.0005204653 -0.012638498 -0.103686206 -0.088464044 -0.061438512
0.16011152 0.085407935 -0.094484836 -0.012675557 0.041345343 0.051874194 0.14527138 -0.055171914
-0.07937746 0.13184139 -0.032821096 -0.10362559 -0.1000428 0.0021671448 -0.03772347 -0.1036377
-0.07394552 0.100745626 -0.09437884 -0.10998931 -0.07751197 -0.029674364 0.06901575 0.068750836
00000000: 575b 1abd f2e7 f53c fcf5 663d 8d93 cbbd
00000010: 940e 6dbd 880f 313e b7c7 70bd 3174 b3bd
00000020: 0e4a 963c 20a8 94bc 2b4d c3bd 9590 913d
00000030: bcdc c8bd 1a7a 4d3e ae2a cebc 3fec 8d3d
00000040: fa39 893d 8a0e c43d fc2f 14bd 7100 213c
00000050: e437 d43c 4044 2a3e d03b 593d a49e 9a3d
00000060: 9eba 03be 9c30 c73c 2e70 2cbc dc4e c93d
00000070: bf56 3dbd 738c ac3d f1d9 83bd e05c b53d
00000080: 714b 9bbc 4b5b 203e cb90 913d 70b4 a83c
00000090: e2cf c5bd 1e9e 763d ad51 b43d 3066 7dbd
000000a0: c951 c83d 3203 113e 662b 98bd 285a 333d
000000b0: f8e7 06bd ba95 4e3e 0496 0dbd f6c5 5dbd
000000c0: e0c6 023e 389f 89bd fddf 90bd 02f6 923d
000000d0: 9ff7 98bd 96ce 70bc 11cb f53d 7c2f 8dbc
000000e0: a446 f43d 128e 5e3d d364 f63b 9dd7 e5bc
000000f0: f70c 6cbd de8d 3abe 9597 f5bd 1361 f9bd
00000100: cd17 b7bd d75e ccbd 96c9 a43c 7a50 38bd
00000110: 1f11 a13d 5308 2fbe 38c4 c43d 295c e33d
00000120: 6fd8 11bc c2e1 9c3d 90a8 543d 279f eebd
00000130: 677c cfbd 4d79 55be 8784 77bc b68a 373d
00000140: 7ded 643d 71ad 47bc b87c d93d 2809 c53d
00000150: df58 033d 6c12 253d 2675 7dbd 9a20 d3bd
00000160: ca7c afbc f01e 0abe dac9 b43d 0ded 923d
00000170: 3d0f 023e 82c4 78bc c43a e8bd 7a1c 563d
00000180: 0c41 c13d f860 bdbd 34c4 4dbd f728 fa3d
00000190: 2fe6 9abd 62a8 c2bc c3a0 843d b9cb 603d
000001a0: 158b fcbc 1172 3a3e e07b cf3c ce51 ed3c
000001b0: 0709 9bbd 1763 cc3d 4c00 873d 6b07 033e
000001c0: c104 e1bc 1723 a13d b3d7 bcbc 4bd4 53bd
000001d0: 2076 01bd 4f43 99bd 4579 87bc 7f98 e0bc
000001e0: c0e7 2a3e 94bb d7bb 3352 033c be7d 7d3d
000001f0: b7cc dd3d 24c2 943c 7ae4 0e3c 3a47 013d
00000200: fd70 033e d3dc bebc 8e0e c0bc aefe 663d
00000210: 9c15 fbbc d417 ecbd 7c9f c33d 200a 143d
00000220: 00e3 1fbd ac04 90bd 48a0 ccbd 6ad6 8ebd
00000230: 01dd 8ebd 517d e13d 396f 04be fb02 4fbc
00000240: 2f15 b93d 1611 dc3d b902 bdbd b837 1f3e
00000250: 0f94 703c 402f a1bb bfd4 8c3d 574c 1abd
00000260: b030 2d3e d051 70bd 6a96 603c 3b31 2cbd
00000270: 208f ad3b 1ff0 44bc a072 e1bc 6e18 583d
00000280: b947 2f3d 31d5 193e 2043 a93d c230 c7bb
00000290: ec0c 6abc 4eed 28bd f247 ffbd d1c9 d43c
000002a0: c610 b53d afd3 383e a022 7a3d 3bed 77bd
000002b0: eb86 2fbc 095f fabc 4dc1 c0bd 8d27 093e
000002c0: c952 483d 79fe 053e a722 333b 05c8 d3bd
000002d0: 3b08 963d 7bef 943d ec69 a4bd ae96 7abd
000002e0: f7cd c93d 274b 4f3a 6d2e 6cbd 982c 43bd
000002f0: 0089 f6bc 7db9 8bbd 0f34 c6bb 9a53 25bd
00000300: 1b58 9e3c ef8a af3d 624e c1bd d8f4 033c
00000310: 474e 0f3c a1f8 c23c 51ba 22bd dc45 213c
00000320: d817 91bd 5b70 793d 0d59 ab3d 0de2 423e
00000330: 0e3e 6fbb fef2 e139 6f5b b5bd 0d2a 1b3d
00000340: e840 a33c 6877 0c3e e275 a5bd ab11 d03d
00000350: 7bf4 c23d bc40 ce3d e9df 393d 1699 053d
00000360: 4a0c 183e b383 33bd 7a21 1dbd 6a31 1b3e
00000370: 0a7e 243d bab4 95bd 609e 8d3c b12c 19bb
00000380: fe37 193e 1c9d 5f3b fffd 8abd d66f 083a
00000390: b411 4fbc 6f59 d4bd a32c b5bd f3a6 7bbd
000003a0: 46f4 233e 5bea ae3d 4481 c1bd 24ad 4fbc
000003b0: bc59 293d 097a 543d 05c2 143e f2fb 61bd
000003c0: a690 a2bd 6e01 073e 6a6f 06bd a739 d4bd
000003d0: 3de3 ccbd a806 0e3b ed83 1abd 0140 d4bd
000003e0: c070 97bd b953 ce3d b149 c1bd 1342 e1bd
000003f0: 99be 9ebd a717 f3bc 2158 8d3d 3dcd 8c3d

fcs4.bias f4 [64]
-0.05819133 0.03787654 0.1226946 0.058262497 -0.05064161 -0.100570664 -0.0064128176 -0.075944275
-0.09297391 0.08950713 -0.12471513 -0.020518053 0.0038544678 0.054649957 -0.13488165 -0.088070124
0.036911722 0.024091667 -0.032520577 -0.16568191 -0.15943776 -0.014207832 -0.0017550199 0.16035679
-0.09068378 -0.13545506 0.030121986 -0.01359146 -0.09708542 0.014549707 -0.0132041685 -0.224999
0.032342833 -0.15827784 0.11690288 0.1115456 0.001067249 0.084198155 0.11236182 0.015384689
-0.022501163 0.026070267 -0.10974762 -0.070363276 0.03144848 -0.091756314 0.054369796 0.0947576
-0.026575971 -0.07980495 0.10415727 0.06428255 -0.061470922 0.03948394 -0.052567333 -0.068236925
-0.06837768 0.0592727 0.02725877 0.022244051 0.09636464 -0.07580292 0.06364799 -0.15736666
00000000: 085a 6ebd 6e24 1b3d 4e47 fb3d a8a4 6e3d
00000010: 946d 4fbd fef7 cdbd 9d22 d2bb ac88 9bbd
00000020: 1b69 bebd 844f b73d a56a ffbd 7a15 a8bc
00000030: 3d9b 7c3b a2d8 5f3d 6a1e 0abe 1c5e b4bd
00000040: bf30 173d e35b c53c 4c34 05bd 85a8 29be
00000050: a743 23be f7c7 68bc b208 e6ba 9234 243e
00000060: 6bb8 b9bd bbb4 0abe 62c2 f63c b7ae 5ebc
00000070: b8d4 c6bd e561 6e3c 4c56 58bc 2366 66be
00000080: eb79 043d 9613 22be c76a ef3d 0572 e43d
00000090: efe2 8b3a 1570 ac3d f41d e63d 1010 7c3c
000000a0: 5c54 b8bc 5091 d53c 5cc3 e0bd 9f1a 90bd
000000b0: 1fd0 003d bcea bbbd ddb2 5e3d 4610 c23d
000000c0: dab5 d9bc c770 a3bd 6850 d53d 92a6 833d
000000d0: efc8 7bbd e9b9 213d d850 57bd cdbf 8bbd
000000e0: 9909 8cbd eec7 723d c94d df3c 2839 b63c
000000f0: d35a c53d 903e 9bbd e159 823d ba24 21be

bn2.weight f4 [64]
0.55325264 0.103327096 0.9482284 0.048787296 0.24631941 0.51868886 0.36797 0.07740313
0.78010905 0.16578329 0.438038 0.7018639 0.20970392 0.9848078 0.44310975 0.9389011
0.66849035 0.26795155 0.7725306 0.793547 0.32940537 0.29619223 0.5564086 0.6668498
0.63238436 0.9982889 0.3783313 0.5231893 0.4327817 0.21107781 0.7145934 0.024315715
0.90146005 0.18762374 0.0060070157 0.7968466 0.9478978 0.78773963 0.7468736 0.18457305
0.9006433 0.23505056 0.21156532 0.25923336 0.958615 0.3512885 0.4596417 0.08725566
0.56546557 0.2759145 0.09797335 0.5040233 0.03298968 0.9823824 0.2890088 0.69483364
0.114162326 0.04485011 0.39545697 0.7009958 0.13791311 0.37076318 0.80642796 0.9732435
00000000: f7a1 0d3f 289d d33d 19bf 723f 30d5 473d
00000010: 283b 7c3e cbc8 043f 9066 bc3e 8885 9e3d
00000020: 3ab5 473f 18c3 293e 8446 e03e 5aad 333f
00000030: a0bc 563e 5d1c 7c3f 48df e23e d35b 703f
00000040: 2f22 2b3f f230 893e 91c4 453f e525 4b3f
00000050: d2a7 a83e 82a6 973e cb70 0e3f abb6 2a3f
00000060: f1e3 213f dd8f 7f3f a4b4 c13e bcef 053f
00000070: 9095 dd3e c824 583e 98ef 363f c031 c73c
00000080: 16c6 663f 7020 403e 80d6 c43b 24fe 4b3f
00000090: 6ea9 723f 4ea9 493f 1c33 3f3f b800 3d3e
000000a0: 8f90 663f 18b1 703e 94a4 583e 3cba 843e
000000b0: cb67 753f 16dc b33e 2856 eb3e 18b3 b23d
000000c0: 5ac2 103f aa44 8d3e 40a6 c83d ac07 013f
000000d0: 3020 073d 6a7d 7b3f f6f8 933e 9ee0 313f
000000e0: f0cd e93d c0b4 373d 5679 ca3e 7674 333f
000000f0: 1839 0d3e acd4 bd3e 1072 4e3f 7c26 793f

bn2.bias f4 [64]
0.0 0.0 0.0 0.0 0.0 0.0 0.0 0.0
0.0 0.0 0.0 0.0 0.0 0.0 0.0 0.0
0.0 0.0 0.0 0.0 0.0 0.0 0.0 0.0
0.0 0.0 0.0 0.0 0.0 0.0 0.0 0.0
0.0 0.0 0.0 0.0 0.0 0.0 0.0 0.0
0.0 0.0 0.0 0.0 0.0 0.0 0.0 0.0
0.0 0.0 0.0 0.0 0.0 0.0 0.0 0.0
0.0 0.0 0.0 0.0 0.0 0.0 0.0 0.0
00000000: 0000 0000 0000 0000 0000 0000 0000 0000
00000010: 0000 0000 0000 0000 0000 0000 0000 0000
00000020: 0000 0000 0000 0000 0000 0000 0000 0000
00000030: 0000 0000 0000 0000 0000 0000 0000 0000
00000040: 0000 0000 0000 0000 0000 0000 0000 0000
00000050: 0000 0000 0000 0000 0000 0000 0000 0000
00000060: 0000 0000 0000 0000 0000 0000 0000 0000
00000070: 0000 0000 0000 0000 0000 0000 0000 0000
00000080: 0000 0000 0000 0000 0000 0000 0000 0000
00000090: 0000 0000 0000 0000 0000 0000 0000 0000
000000a0: 0000 0000 0000 0000 0000 0000 0000 0000
000000b0: 0000 0000 0000 0000 0000 0000 0000 0000
000000c0: 0000 0000 0000 0000 0000 0000 0000 0000
000000d0: 0000 0000 0000 0000 0000 0000 0000 0000
000000e0: 0000 0000 0000 0000 0000 0000 0000 0000
000000f0: 0000 0000 0000 0000 0000 0000 0000 0000

bn2.running_mean f4 [64]
0.0 0.0 0.0 0.0 0.0 0.0 0.0 0.0
0.0 0.0 0.0 0.0 0.0 0.0 0.0 0.0
0.0 0.0 0.0 0.0 0.0 0.0 0.0 0.0
0.0 0.0 0.0 0.0 0.0 0.0 0.0 0.0
0.0 0.0 0.0 0.0 0.0 0.0 0.0 0.0
0.0 0.0 0.0 0.0 0.0 0.0 0.0 0.0
0.0 0.0 0.0 0.0 0.0 0.0 0.0 0.0
0.0 0.0 0.0 0.0 0.0 0.0 0.0 0.0
00000000: 0000 0000 0000 0000 0000 0000 0000 0000
00000010: 0000 0000 0000 0000 0000 0000 0000 0000
00000020: 0000 0000 0000 0000 0000 0000 0000 0000
00000030: 0000 0000 0000 0000 0000 0000 0000 0000
00000040: 0000 0000 0000 0000 0000 0000 0000 0000
00000050: 0000 0000 0000 0000 0000 0000 0000 0000
00000060: 0000 0000 0000 0000 0000 0000 0000 0000
00000070: 0000 0000 0000 0000 0000 0000 0000 0000
00000080: 0000 0000 0000 0000 0000 0000 0000 0000
00000090: 0000 0000 0000 0000 0000 0000 0000 0000
000000a0: 0000 0000 0000 0000 0000 0000 0000 0000
000000b0: 0000 0000 0000 0000 0000 0000 0000 0000
000000c0: 0000 0000 0000 0000 0000 0000 0000 0000
000000d0: 0000 0000 0000 0000 0000 0000 0000 0000
000000e0: 0000 0000 0000 0000 0000 0000 0000 0000
000000f0: 0000 0000 0000 0000 0000 0000 0000 0000

bn2.running_var f4 [64]
1.0 1.0 1.0 1.0 1.0 1.0 1.0 1.0
1.0 1.0 1.0 1.0 1.0 1.0 1.0 1.0
1.0 1.0 1.0 1.0 1.0 1.0 1.0 1.0
1.0 1.0 1.0 1.0 1.0 1.0 1.0 1.0
1.0 1.0 1.0 1.0 1.0 1.0 1.0 1.0
1.0 1.0 1.0 1.0 1.0 1.0 1.0 1.0
1.0 1.0 1.0 1.0 1.0 1.0 1.0 1.0
1.0 1.0 1.0 1.0 1.0 1.0 1.0 1.0
00000000: 0000 803f 0000 803f 0000 803f 0000 803f
00000010: 0000 803f 0000 803f 0000 803f 0000 803f
00000020: 0000 803f 0000 803f 0000 803f 0000 803f
00000030: 0000 803f 0000 803f 0000 803f 0000 803f
00000040: 0000 803f 0000 803f 0000 803f 0000 803f
00000050: 0000 803f 0000 803f 0000 803f 0000 803f
00000060: 0000 803f 0000 803f 0000 803f 0000 803f
00000070: 0000 803f 0000 803f 0000 803f 0000 803f
00000080: 0000 803f 0000 803f 0000 803f 0000 803f
00000090: 0000 803f 0000 803f 0000 803f 0000 803f
000000a0: 0000 803f 0000 803f 0000 803f 0000 803f
000000b0: 0000 803f 0000 803f 0000 803f 0000 803f
000000c0: 0000 803f 0000 803f 0000 803f 0000 803f
000000d0: 0000 803f 0000 803f 0000 803f 0000 803f
000000e0: 0000 803f 0000 803f 0000 803f 0000 803f
000000f0: 0000 803f 0000 803f 0000 803f 0000 803f

fc5.weight f4 [128, 68]
0.040006284 0.009571012 -0.03929608 0.0012495872 -0.013009794 -0.059285026 -0.06448084 -0.06442921
-0.072296135 -0.0016874756 -0.025401821 0.003896259 -0.026676232 -0.0714786 -0.1646416 0.0030710795
-0.000109709545 0.0044902656 -0.11529738 -0.014875773 -0.11896106 0.0034422867 0.049753264 0.020104079
0.05410849 -0.0012148526 0.047423556 -0.16241814 0.019763129 -0.0015647046 0.024029449 0.07794814
-0.059368007 -0.082146615 0.050698712 -0.0033442967 -0.010191884 -0.008721378 -0.046270113 0.054236714
-0.04397858 -0.049077205 -0.040931754 -0.11243593 -0.0135478685 -0.08712721 0.0752707 -0.042576797
0.015568326 0.0008389885 -0.01468563 -0.08621225 -0.05553526 0.003931885 -0.13732903 0.050976783
0.065933675 -0.020090548 -0.067836285 -0.09745528 -0.06318625 -0.09000177 -0.1541038 -0.046110123
0.05710193 -0.03331734 0.14393106 0.11130135 -0.0020613538 -0.02582771 0.06589955 -0.06770025
-0.08988579 -0.071339495 0.059946314 -0.03974679 0.063638344 0.013569905 -0.015119876 -0.013190467
-0.09230978 -0.14767823 0.0679178 -0.019740703 -0.024511995 -0.07913504 0.06288894 0.10187595
-0.0044779507 0.061167274 0.026503202 0.036469527 0.019889925 0.075812556 0.03624057 -0.137729
-0.12631032 -0.051272936 0.018880434 -0.100679204 -0.17245334 -0.12829953 -0.011462686 -0.048269857
-0.05706575 -0.036526017 0.01627579 0.051355824 0.030840665 0.02710023 0.005238066 0.012179115
-0.07550428 -0.11154721 -0.11380721 -0.057177916 0.21833032 -0.0052578016 0.03573199 -0.1074573
-0.10668508 -0.14367974 -0.07873209 0.051965848 -0.010979397 -0.06327177 0.026600357 -0.05914712
-0.045216292 -0.09552475 -0.06923718 -0.0371765 0.05617372 -0.029255342 0.038011268 -0.07640569
-0.009971641 -0.0060290336 -0.011971087 0.073285915 -0.024847109 -0.011219918 -0.058782574 -0.037222695
-0.09071467 0.036863893 -0.037689183 -0.031576928 -0.050692294 -0.098686926 -0.011314945 0.0068440856
0.053268667 -0.02161989 0.06575237 0.032111123 -0.06431076 -0.0032611224 0.052678116 0.04151111
-0.11732857 0.023722535 -0.038742784 -0.01627323 -0.023141751 -0.12413628 -0.03711782 -0.041170865
-0.008526827 -0.0065727574 0.049664035 -0.00667795 0.030436441 -0.08056155 -0.0458715 -0.03829017
-0.011153997 -0.02062572 -0.023682091 -0.04058773 0.06846212 -0.0009699657 -0.18356085 0.05744891
-0.15800838 -0.013228946 -0.050679553 0.028993495 0.07050207 0.011541431 -0.049532987 0.0040636123
0.0628196 0.073393755 -0.052108437 0.06109818 -0.041455146 0.03406294 -0.088254 0.06770878
0.089680985 0.030719686 0.09086429 0.060119063 0.015855022 0.051035125 -0.017227529 -0.0459867
-0.007853608 0.0391327 0.00908654 -0.06034371 -0.11381655 0.018388947 0.012977619 0.029611086
-0.12252286 0.0190553 -0.03856443 0.025886672 -0.03398053 -0.06458152 -0.11972315 0.090430535
-0.11868542 -0.014688076 -0.07006376 0.018797275 -0.10409611 -0.001972662 0.02959467 -0.020536445
0.027691744 0.011341958 0.0127038425 0.028141093 0.06469737 0.010156808 0.003226833 -0.09264477
0.029976739 -0.07359179 0.013821875 -0.015449653 -0.08428134 -0.09415686 -0.11810819 -0.1023249
0.029668707 0.0069786333 0.036039107 0.02586915 -0.044700816 -0.012367769 0.03195583 -0.092657514
00000000: a1dd 233d bccf 1c3c edf4 20bd 30c9 a33a
00000010: 0827 55bc dbd4 72bd 880e 84bd 76f3 83bd
00000020: ff0f 94bd 492e ddba 7b17 d0bc 6158 7f3b
00000030: 1d88 dabc 5f63 92bd cf97 28be 2a44 493b
00000040: dd13 e6b8 1423 933b 0821 ecbd 84b9 73bc
00000050: dba1 f3bd fd97 613b 14ca 4b3d 4fb1 a43c
00000060: dda0 5d3d b03b 9fba 343f 423d f150 26be
00000070: 49e6 a13c c616 cdba 68d9 c43c 46a3 9f3d
00000080: de2b 73bd 7c3c a8bd 74a9 4f3d fd2b 5bbb
00000090: dcfb 26bc 1ce4 0ebc bb85 3dbd 5127 5e3d
000000a0: e222 34bd 2e05 49bd 0ea8 27bd cf44 e6bd
000000b0: e1f7 5dbc c06f b2bd 8627 9a3d 0265 2ebd
000000c0: 4b12 7f3c 91ef 5b3a ff9b 70bc 0c90 b0bd
000000d0: f178 63bd 0bd7 803b fb9f 0cbe 08cd 503d
000000e0: 3c08 873d ef94 a4bc c0ed 8abd a296 c7bd
000000f0: cb67 81bd d952 b8bd 63cd 1dbe f8dd 3cbd
00000100: b7e3 693d c377 08bd aa62 133e f6f1 e33d
00000110: c717 07bb a294 d3bc 58f6 863d 6ea6 8abd
00000120: 0b16 b8bd 711a 92bd 448a 753d 88cd 22bd
00000130: d254 823d 4f54 5e3c 5bb9 77bc d41c 58bc
00000140: e90c bdbd f638 17be 7d18 8b3d 41b7 a1bc
00000150: 61cd c8bc 8d11 a2bd ebcb 803d 57a4 d03d
00000160: c6bb 92bb 898a 7a3d 3e1d d93c 1261 153d
00000170: 32f0 a23c 9d43 9b3d fe70 143d d508 0dbe
00000180: 7e57 01be 9203 52bd 24ab 9a3c e630 cebd
00000190: 9c97 30be f460 03be fdcd 3bbc 9db6 45bd
000001a0: c7bd 69bd 4e9c 15bd ce54 853c 7c5a 523d
000001b0: 90a5 fc3c 4d01 de3c 15a4 ab3b e98a 473c
000001c0: fda1 9abd dd72 e4bd c113 e9bd 6433 6abd
000001d0: fc91 5f3e a349 acbb b55b 123d 9312 dcbd
000001e0: b57d dabd c820 13be 4a3e a1bd 24da 543d
000001f0: eee2 33bc a194 81bd fee8 d93c 4044 72bd
00000200: b834 39bd 7ba2 c3bd 39cc 8dbd 6346 18bd
00000210: 6a16 663d e6a8 efbc b4b1 1b3d 967a 9cbd
00000220: 1860 23bc 338f c5bb 6122 44bc ed16 963d
00000230: 2a8c cbbc bfd3 37bc ffc5 70bd d376 18bd
00000240: 9dc8 b9bd 98fe 163d f95f 1abd cf56 01bd
00000250: b9a2 4fbd 5f1c cabd 5262 39bc 5a44 e03b
00000260: 3f30 5a3d 321c b1bc 2ea9 863d f486 033d
00000270: 5cb5 83bd 8eb8 55bb 02c5 573d 8e07 2a3d
00000280: f649 f0bd c355 c23c c1b0 1ebd 704f 85bc
00000290: c593 bdbc 293b febd db08 18bd c8a2 28bd
000002a0: 1bb4 0bbc 4960 d7bb 846c 4b3d b4d2 dabb
000002b0: d855 f93c 74fd a4bd c1e3 3bbd 27d6 1cbd
000002c0: 41bf 36bc 45f7 a8bc f200 c2bc 523f 26bd
000002d0: de35 8c3d 4c45 7eba 60f7 3bbe 8c4f 6b3d
000002e0: f3cc 21be 39be 58bc 5d95 4fbd c483 ed3c
000002f0: 6463 903d 4518 3d3c 1ae3 4abd 0d28 853b
00000300: 90a7 803d 774f 963d a86f 55bd 1642 7a3d
00000310: dfcc 29bd 9585 0b3d 83be b4bd e7aa 8a3d
00000320: aaaa b73d daa7 fb3c 0f17 ba3d 683f 763d
00000330: 64e2 813c 350a 513d bf20 8dbc 8d5c 3cbd
00000340: 6bac 00bc 9c49 203d b6df 143c f72a 77bd
00000350: a718 e9bd 6ba4 963c 14a0 543c f392 f23c
00000360: 44ed fabd dc19 9c3c bcf5 1dbd 4910 d43c
00000370: 2b2f 0bbd 5143 84bd 6931 f5bd a533 b93d
00000380: 5711 f3bd 42a6 70bc 977d 8fbd befc 993c
00000390: 5730 d5bd c747 01bb 8570 f23c 0c3c a8bc
000003a0: ccd9 e23c 9fd3 393c c723 503c 2688 e63c
000003b0: 0e80 843d be68 263c 4679 533b 8bbc bdbd
000003c0: c791 f53c 4bb7 96bd 2575 623c 8b20 7dbc
000003d0: b29b acbd 50d5 c0bd b5e2 f1bd b88f d1bd
000003e0: ca0b f33c 05ad e43b be9d 133d 8aeb d33c
000003f0: 3418 37bd 2fa2 4abc 1ee4 023d 39c3 bdbd

fc5.bias f4 [128]
-0.048378006 0.0101701 -0.0027562175 -0.0824605 0.017546982 0.04044957 -0.07778563 -0.103361264
-0.00797649 -0.118500076 -0.11000062 -0.020862572 0.023675213 -0.07049307 0.047454692 -0.070740886
0.089431114 -0.050365467 -0.07578099 -0.038240176 -0.14117837 -0.0059571187 -0.017032336 0.033715382
0.05946957 0.12091908 0.05350867 0.08750361 0.08085857 0.08346285 -0.032115318 0.02541694
-0.122013405 0.07989241 -0.046062306 0.077234715 0.024191564 -0.04324804 -0.047140446 0.071683705
-0.029860249 0.06269173 -0.046807263 0.012410885 0.060084615 0.017224247 -0.052335314 -0.045250397
-0.124952726 -0.1114567 0.02795104 0.01195765 -0.08727361 -0.061910927 -0.066849366 -0.04333459
-0.06918832 0.026125513 -0.036635745 0.0473838 0.049396478 -0.10501381 -0.13940345 -0.10940121
0.0020649906 0.06492644 -0.005335408 0.0042061834 0.03668757 0.094565034 0.014603273 -0.1386107
-0.081351124 -0.14751823 -0.07510572 -0.052223124 0.04819731 0.10274369 0.00491495 -0.056593746
0.071860254 -0.00081312057 0.059794467 0.007375301 -0.07473151 0.08421056 -0.09019151 -0.09435806
-0.046586104 0.10865125 0.006758128 0.08078405 0.1309406 0.09272136 -0.074747846 -0.018612817
-0.118919194 -0.08311193 -0.027680226 -0.11462203 -0.08829421 0.02980848 -0.128859 -0.08080627
0.10875089 -0.13006966 0.07879982 -0.04282911 -0.04597411 -0.06907179 -0.1278069 -0.10053049
0.055032484 0.057455312 -0.02033599 0.100973845 0.053773023 -0.08728544 0.029854693 0.075915866
0.03248671 -0.08588723 -0.07433684 -0.08053854 -0.06222745 0.056867454 0.021357724 -0.089339
00000000: 0428 46bd 7ea0 263c a8a1 34bb 0de1 a8bd
00000010: b0be 8f3c 73ae 253d 134e 9fbd 12af d3bd
00000020: d3af 02bc 2bb0 f2bd 0148 e1bd fce7 aabc
00000030: 85f2 c13c ac5e 90bd da5f 423d 99e0 90bd
00000040: a927 b73d 054c 4ebd 1033 9bbd bba1 1cbd
00000050: 1091 10be ef33 c3bb 6687 8bbc 2419 0a3d
00000060: 5d96 733d 6ca4 f73d e82b 5b3d 1835 b33d
00000070: 2e99 a53d 92ee aa3d 5a8b 03bd 3037 d03c
00000080: 2ae2 f9bd a29e a33d d4ab 3cbd 3c2d 9e3d
00000090: 632d c63c db24 31bd 5716 41bd e8ce 923d
000000a0: 7b9d f4bc 8664 803d f9b8 3fbd 0657 4b3c
000000b0: 491b 763d dd19 8d3c 8e5d 56bd 7b58 39bd
000000c0: 37e7 ffbd 6943 e4bd 94f9 e43c 05ea 433c
000000d0: 82bc b2bd 5096 7dbd 52e8 88bd 9c7f 31bd
000000e0: 9bb2 8dbd 2c05 d63c 5d0f 16bd 8415 423d
000000f0: f653 4a3d 7b11 d7bd c7bf 0ebe be0d e0bd
00000100: cb54 073b 27f8 843d a5d4 aebb 06d4 893b
00000110: b545 163d 50ab c13d 9142 6f3c f7ef 0dbe
00000120: 6b9b a6bd 050f 17be 07d1 99bd eae7 55bd
00000130: 8b6a 453d 496b d23d 970d a13b d8ce 67bd
00000140: 782b 933d 9927 55ba 0beb 743d 82ac f13b
00000150: d50c 99bd 9676 ac3d 54b6 b8bd cc3e c1bd
00000160: 12d1 3ebd 8c84 de3d 4973 dd3b 1c72 a53d
00000170: 4b15 063e b2e4 bd3d 6615 99bd e879 98bc
00000180: e88b f3bd 9636 aabd a4c1 e2bc f4be eabd
00000190: 98d3 b4bd ea30 f43c 9df3 03be c27d a5bd
000001a0: c9b8 de3d fb30 05be cd61 a13d 946d 2fbd
000001b0: 594f 3cbd 8375 8dbd d0df 02be eee2 cdbd
000001c0: be69 613d 4356 6b3d a997 a6bc 60cb ce3d
000001d0: 1a41 5c3d b5c2 b2bd d491 f43c c779 9b3d
000001e0: c910 053d a5e5 afbd ea3d 98bd 64f1 a4bd
000001f0: 36e2 7ebd d9ed 683d 65f6 ae3c 5ef7 b6bd
