critic_ckpt_1_.pth (torch_old, 101358 bytes, 18 tensors)

fcs1.weight f4 [64, 48]
0.09051442 0.0879361 -0.043034356 -0.100618295 -0.046697978 0.06677196 -0.010199551 -0.01934202
0.09103418 0.08265469 0.10630723 0.068352014 -0.0627084 -0.15090282 -0.022440137 0.029221933
-0.03176341 -0.0012174863 0.09031629 -0.061104972 0.10157062 -0.12365221 -0.011425209 -0.12586461
-0.042235434 0.017310113 -0.102682926 -0.030636972 0.07482288 -0.021794552 0.112649806 -0.015705828
-0.06442044 -0.023942193 -0.10129406 -0.09899268 -0.016081303 -0.11752961 -0.013772049 0.019683456
0.09024792 -0.078977 0.030166645 -0.0550841 0.07368992 -0.0064178114 0.00050506927 0.090226576
0.0053434162 0.040267613 0.092800304 0.14308847 -0.06740759 0.015109199 -0.06763896 0.15664233
0.010333196 -0.0252271 0.077914916 -0.05481149 0.060362563 0.11813089 -0.07133765 -0.11976295
-0.073918186 -0.10763848 0.04127711 -0.02905546 -0.03866559 0.1610178 0.020622544 -0.1009375
0.07988219 0.13149816 -0.037561633 -0.021551723 0.09164649 -0.07548212 0.049466692 0.03575082
0.11105107 -0.01987029 -0.15832464 0.038134877 -0.03599741 -0.0031429816 0.008237856 0.0075626173
-0.042875066 0.05682093 0.045767855 -0.0106971 -0.081842065 0.22038448 -0.023699978 0.10456935
0.081651695 -0.14041828 -0.041700922 -0.06874081 -0.0033119884 0.17011662 -0.014240338 -0.1113917
0.040635232 -0.115953356 0.032758407 -0.08536383 0.046096016 0.02830673 0.03508099 -0.055719424
-0.022655651 -0.035864428 -0.059730735 0.084246226 -0.0029234057 0.09065619 -0.023027744 0.013901831
-0.056673612 -0.0031523725 -0.025511933 -0.014389131 0.016703432 0.19099738 0.015989942 0.064684525
0.07955222 -0.06577502 0.006901654 0.03735459 -0.083120055 0.2639557 -0.09893618 0.13169166
-0.0033735672 -0.0198304 -0.033254635 0.030775301 0.11496702 0.039900467 0.07085132 -0.09780568
0.033916127 0.14387164 -0.019910008 0.021485168 -0.05371574 0.02241765 0.019558147 -0.033699468
0.06963947 -0.09376607 0.015998378 -0.050229408 -0.019911887 0.06679343 -0.01734367 0.02685496
0.0072603025 -0.07024563 0.036862113 0.056631155 -0.06989976 0.04856418 0.0177472 -0.12617284
-0.053504124 0.11197424 -0.09974483 0.011584544 -0.010107517 0.14306471 -0.018318338 -0.09414619
0.13174412 0.04712781 0.09354148 -0.03968894 0.08278172 0.16458416 0.08004489 -0.09073403
0.1511067 -0.105090365 -0.008417463 -0.017898774 0.04958006 0.18436718 -0.09079786 0.086367995
0.026893731 0.20378764 -0.009077514 0.067109376 -0.12408582 0.08056411 -0.002408793 -0.14213257
0.10205659 0.118867554 -0.018212134 -0.17696136 0.010539386 0.03463862 -0.11744237 -0.050693847
0.14247535 0.09213313 0.024152432 0.062017843 -0.049385767 -0.12135431 0.03916734 -0.1331458
0.05849026 0.017409408 -0.06867607 0.024805192 0.09949018 -0.12951623 0.09008172 -0.01181157
0.046269804 0.04819599 0.07112225 -0.030406069 -0.010787118 0.056494404 0.1110955 -0.15632583
-0.03911328 0.052932918 0.025840733 0.063763 -0.031645082 0.044101477 -0.012465841 0.03512455
0.08034826 -0.09109691 0.08755505 -0.04578228 0.16994661 -0.32018465 0.094223574 0.02229929
0.047625367 0.038617834 0.094939634 0.05430832 0.049699865 -0.15338075 -0.03396331 0.014662296
00000000: a05f b93d d817 b43d cb44 30bd f710 cebd
00000010: 6146 3fbd bdbf 883d 041c 27bc 2873 9ebc
00000020: 2170 ba3d dd46 a93d 9bb7 d93d 24fc 8b3d
00000030: 436d 80bd 4586 1abe 61d4 b7bc d662 ef3c
00000040: 591a 02bd 1094 9fba bff7 b83d 3549 7abd
00000050: 4204 d03d 5f3d fdbd cd30 3bbc a7e2 00be
00000060: 10ff 2cbd f0cd 8d3c 6d4b d2bd 63fa fabc
00000070: bd3c 993d 7d8a b2bc f1b4 e63d 82a9 80bc
00000080: ddee 83bd 6b22 c4bc 4373 cfbd adbc cabd
00000090: f0bc 83bc 5db3 f0bd 29a4 61bc 333f a13c
000000a0: e7d3 b83d b2be a1bd 0a20 f73c de9f 61bd
000000b0: beea 963d 814c d2bb a066 043a b6c8 b83d
000000c0: d317 af3b a7ef 243d 160e be3d c985 123e
000000d0: fe0c 8abd 938c 773c 4c86 8abd d966 203e
000000e0: 914c 293c 10a9 cebc db91 9f3d 0382 60bd
000000f0: bc3e 773d 9cee f13d 7919 92bd 4746 f5bd
00000100: 6b62 97bd 9071 dcbd 3012 293d b705 eebc
00000110: cf5f 1ebd dae1 243e 9cf0 a83c 52b8 cebd
00000120: 4699 a33d 74a7 063e 3ada 19bd 3d8d b0bc
00000130: 28b1 bb3d 5f96 9abd 969d 4a3d 746f 123d
00000140: be6e e33d 05c7 a2bc db1f 22be 5133 1c3d
00000150: 0572 13bd 7bfa 4dbb 13f8 063c d5cf f73b
00000160: c49d 2fbd 10bd 683d 1377 3b3d e442 2fbc
00000170: d09c a7bd 78ac 613e 7526 c2bc 7528 d63d
00000180: 0139 a73d cfc9 0fbe 96ce 2abd fbc7 8cbd
00000190: f20d 59bb 0d33 2e3e 4e50 69bc 5521 e4bd
000001a0: 2171 263d f478 edbd ae2d 063d 3bd3 aebd
000001b0: 2dcf 3c3d 84e3 e73c 16b1 0f3d 0d3a 64bd
000001c0: 5898 b9bc 94e6 12bd 37a8 74bd 4989 ac3d
000001d0: 9c96 3fbb f4a9 b93d aea4 bcbc 81c4 633c
000001e0: 9722 68bd 0998 4ebb 67fe d0bc 64c0 6bbc
000001f0: a3d5 883c d194 433e 57fd 823c 5279 843d
00000200: 46ec a23d 0eb5 86bd 4527 e23b 2001 193d
00000210: d93a aabd 3425 873e 0d9f cabd 2eda 063e
00000220: 1117 5dbb 5d73 a2bc 0336 08bd 7c1c fc3c
00000230: d473 eb3d ac6e 233d 7f1a 913d 584e c8bd
00000240: a3eb 0a3d 1653 133e 501a a3bc aa01 b03c
00000250: 0905 5cbd 38a5 b73c 6838 a03c 7408 0abd
00000260: 239f 8e3d 6d08 c0bd 080f 833c 5abd 4dbd
00000270: 411e a3bc feca 883d 5014 8ebc effe db3c
00000280: d5e7 ed3b f1dc 8fbd bafc 163d 12f6 673d
00000290: 9b27 8fbd 3ceb 463d 9362 913c 7433 01be
000002a0: 2427 5bbd c052 e53d 0447 ccbd 19cd 3d3c
000002b0: 009a 25bc 8e7f 123e 5710 96bc b8cf c0bd
000002c0: eee7 063e 1709 413d ad92 bf3d df90 22bd
000002d0: 7689 a93d c088 283e 93ee a33d c3d2 b9bd
000002e0: b7bb 1a3e 9e39 d7bd 66e9 09bc 73a0 92bc
000002f0: 7614 4b3d c0ca 3c3e 3af4 b9bd b4e1 b03d
00000300: 3e50 dc3c b5ad 503e dab9 14bc a470 893d
00000310: b520 febd ccfe a43d d7dc 1dbb 338b 11be
00000320: 0c03 d13d d570 f33d 9d31 95bc 5c35 35be
00000330: 64ad 2c3c 3ae1 0d3d a085 f0bd 5aa4 4fbd
00000340: 0fe5 113e 4bb0 bc3d 52db c53c 6c06 7e3d
00000350: bb48 4abd 9c88 f8bd ef6d 203d 5f57 08be
00000360: 7c93 6f3d 2d9e 8e3c 0aa6 8cbd 4234 cb3c
00000370: 82c1 cb3d e79f 04be c47c b83d 5185 41bc
00000380: 6885 3d3d 2969 453d 8ba8 913d 2616 f9bc
00000390: 74bc 30bc ad66 673d 0a86 e33d e113 20be
000003a0: 3f35 20bd 30d0 583d f2af d33c 2d96 823d
000003b0: 469e 01bd c0a3 343d 873d 4cbc c3de 0f3d
000003c0: a18d a43d 0491 babd 1050 b33d 3386 3bbd
000003d0: 7c06 2e3e 3eef a3be 4af8 c03d 00ad b63c
000003e0: d112 433d bc2d 1e3d b66f c23d 6772 5e3d
000003f0: 1692 4b3d d80f 1dbe 1d1d 0bbd 203a 703c

fcs1.bias f4 [64]
0.082396895 -0.15397163 -0.1521279 0.031415038 -0.011172002 0.015794922 0.03557384 -0.022900695
0.043185513 0.09541663 -0.15323676 -0.042588193 0.028105317 -0.109613106 0.045635715 0.034497585
0.02731396 -0.13099986 -0.08515566 0.007059193 -0.093842216 0.016153632 0.029359492 -0.050704345
0.10979226 -0.17571706 -0.219307 0.11313219 -0.062293813 -0.13131109 -0.052701756 0.09506442
-0.07950375 0.0033614316 0.07968859 0.0012527319 0.081905045 0.023514008 -0.08606519 -0.09060999
0.06728705 0.002788797 0.028022196 -0.045961093 -0.096197315 -0.035197802 0.09277302 -0.011577301
-0.092434876 -0.023753082 -0.13310525 -0.07209408 -0.064225495 -0.17807198 -0.11580254 -0.10075235
-0.15917344 0.12528925 -0.021052029 -0.13646579 -0.10081692 0.07117013 0.111354776 -0.0071015093
00000000: b4bf a83d bdaa 1dbe 6bc7 1bbe 0ead 003d
00000010: c60a 37bc 5a64 813c e0b5 113d 3d9a bbbc
00000020: 4be3 303d cb69 c33d 19ea 1cbe f570 2ebd
00000030: 1f3d e63c d67c e0bd 84ec 3a3d 574d 0d3d
00000040: 87c1 df3c d424 06be 1766 aebd ce50 e73b
00000050: 5930 c0bd 9f54 843c 5183 f03c 5caf 4fbd
00000060: c4da e03d 2cef 33be 0492 60be dab1 e73d
00000070: cc27 7fbd 6a76 06be ccdd 57bd 22b1 c23d
00000080: ddd2 a2bd 774b 5c3b c533 a33d b532 a43a
00000090: d5bd a73d 73a0 c03c f242 b0bd bb91 b9bd
000000a0: cbcd 893d 40c4 363b ce8e e53c b341 3cbd
000000b0: 1903 c5bd 922b 10bd c8ff bd3d b8ae 3dbc
000000c0: 7f4e bdbd d395 c2bc be4c 08be 10a6 93bd
000000d0: a888 83bd 8058 36be e229 edbd 4057 cebd
000000e0: 5dfe 22be d34b 003e 4e75 acbc b0bd 0bbe
000000f0: 1a79 cebd a5c1 913d f90d e43d c7b3 e8bb

bn1.weight f4 [64]
0.5066727 0.11938411 0.79624844 0.35958612 0.5471363 0.39818352 0.6730008 0.61662203
0.38475662 0.41976392 0.49851722 0.103799105 0.47033072 0.12565273 0.8870942 0.75437385
0.44705063 0.8451366 0.5441497 0.9568759 0.600358 0.73570573 0.5764599 0.21678102
0.0309937 0.30128413 0.89120156 0.7556308 0.33664596 0.18896878 0.9923705 0.55419636
0.06896818 0.32313496 0.534376 0.4522007 0.30665123 0.64815426 0.16067517 0.7093864
0.16256905 0.9031605 0.901136 0.9955953 0.009836435 0.3165933 0.39979511 0.038166583
0.72464055 0.2972662 0.49080908 0.73931354 0.10946965 0.568824 0.28086644 0.8508427
0.9372098 0.3827145 0.17779213 0.79251903 0.14422154 0.97459304 0.8993953 0.71442753
00000000: 4db5 013f a87f f43d f0d6 4b3f ac1b b83e
00000010: 2011 0c3f b6de cb3e c849 2c3f f1da 1d3f
00000020: d2fe c43e 4ceb d63e a63d ff3e a094 d43d
00000030: 30cf f03e 1cab 003e 9b18 633f a51e 413f
00000040: d2e3 e43e df5a 583f 654d 0b3f d2f5 743f
00000050: 10b1 193f 3657 3c3f e092 133f d8fb 5d3e
00000060: 80e6 fd3c ea41 9a3e c925 643f 0571 413f
00000070: dc5c ac3e 0881 413e fe0b 7e3f d0df 0d3f
00000080: 303f 8d3d f271 a53e decc 083f da86 e73e
00000090: 6401 9d3e 70ed 253f 0888 243e 599a 353f
000000a0: 8078 263e 8735 673f d9b0 663f 55df 7e3f
000000b0: 0029 213c 8418 a23e f2b1 cc3e 9054 1c3d
000000c0: 0b82 393f 4633 983e 544b fb3e a743 3d3f
000000d0: a031 e03d 739e 113f bacd 8f3e d4d0 593f
000000e0: fbec 6f3f 28f3 c33e 240f 363e 87e2 4a3f
000000f0: d0ae 133e ee7e 793f c53e 663f b9e4 363f

bn1.bias f4 [64]
0.0 0.0 0.0 0.0 0.0 0.0 0.0 0.0
0.0 0.0 0.0 0.0 0.0 0.0 0.0 0.0
0.0 0.0 0.0 0.0 0.0 0.0 0.0 0.0
0.0 0.0 0.0 0.0 0.0 0.0 0.0 0.0
0.0 0.0 0.0 0.0 0.0 0.0 0.0 0.0
0.0 0.0 0.0 0.0 0.0 0.0 0.0 0.0
0.0 0.0 0.0 0.0 0.0 0.0 0.0 0.0
0.0 0.0 0.0 0.0 0.0 0.0 0.0 0.0
00000000: 0000 0000 0000 0000 0000 0000 0000 0000
00000010: 0000 0000 0000 0000 0000 0000 0000 0000
00000020: 0000 0000 0000 0000 0000 0000 0000 0000
00000030: 0000 0000 0000 0000 0000 0000 0000 0000
00000040: 0000 0000 0000 0000 0000 0000 0000 0000
00000050: 0000 0000 0000 0000 0000 0000 0000 0000
00000060: 0000 0000 0000 0000 0000 0000 0000 0000
00000070: 0000 0000 0000 0000 0000 0000 0000 0000
00000080: 0000 0000 0000 0000 0000 0000 0000 0000
00000090: 0000 0000 0000 0000 0000 0000 0000 0000
000000a0: 0000 0000 0000 0000 0000 0000 0000 0000
000000b0: 0000 0000 0000 0000 0000 0000 0000 0000
000000c0: 0000 0000 0000 0000 0000 0000 0000 0000
000000d0: 0000 0000 0000 0000 0000 0000 0000 0000
000000e0: 0000 0000 0000 0000 0000 0000 0000 0000
000000f0: 0000 0000 0000 0000 0000 0000 0000 0000

bn1.running_mean f4 [64]
0.0 0.0 0.0 0.0 0.0 0.0 0.0 0.0
0.0 0.0 0.0 0.0 0.0 0.0 0.0 0.0
0.0 0.0 0.0 0.0 0.0 0.0 0.0 0.0
0.0 0.0 0.0 0.0 0.0 0.0 0.0 0.0
0.0 0.0 0.0 0.0 0.0 0.0 0.0 0.0
0.0 0.0 0.0 0.0 0.0 0.0 0.0 0.0
0.0 0.0 0.0 0.0 0.0 0.0 0.0 0.0
0.0 0.0 0.0 0.0 0.0 0.0 0.0 0.0
00000000: 0000 0000 0000 0000 0000 0000 0000 0000
00000010: 0000 0000 0000 0000 0000 0000 0000 0000
00000020: 0000 0000 0000 0000 0000 0000 0000 0000
00000030: 0000 0000 0000 0000 0000 0000 0000 0000
00000040: 0000 0000 0000 0000 0000 0000 0000 0000
00000050: 0000 0000 0000 0000 0000 0000 0000 0000
00000060: 0000 0000 0000 0000 0000 0000 0000 0000
00000070: 0000 0000 0000 0000 0000 0000 0000 0000
00000080: 0000 0000 0000 0000 0000 0000 0000 0000
00000090: 0000 0000 0000 0000 0000 0000 0000 0000
000000a0: 0000 0000 0000 0000 0000 0000 0000 0000
000000b0: 0000 0000 0000 0000 0000 0000 0000 0000
000000c0: 0000 0000 0000 0000 0000 0000 0000 0000
000000d0: 0000 0000 0000 0000 0000 0000 0000 0000
000000e0: 0000 0000 0000 0000 0000 0000 0000 0000
000000f0: 0000 0000 0000 0000 0000 0000 0000 0000

bn1.running_var f4 [64]
1.0 1.0 1.0 1.0 1.0 1.0 1.0 1.0
1.0 1.0 1.0 1.0 1.0 1.0 1.0 1.0
1.0 1.0 1.0 1.0 1.0 1.0 1.0 1.0
1.0 1.0 1.0 1.0 1.0 1.0 1.0 1.0
1.0 1.0 1.0 1.0 1.0 1.0 1.0 1.0
1.0 1.0 1.0 1.0 1.0 1.0 1.0 1.0
1.0 1.0 1.0 1.0 1.0 1.0 1.0 1.0
1.0 1.0 1.0 1.0 1.0 1.0 1.0 1.0
00000000: 0000 803f 0000 803f 0000 803f 0000 803f
00000010: 0000 803f 0000 803f 0000 803f 0000 803f
00000020: 0000 803f 0000 803f 0000 803f 0000 803f
00000030: 0000 803f 0000 803f 0000 803f 0000 803f
00000040: 0000 803f 0000 803f 0000 803f 0000 803f
00000050: 0000 803f 0000 803f 0000 803f 0000 803f
00000060: 0000 803f 0000 803f 0000 803f 0000 803f
00000070: 0000 803f 0000 803f 0000 803f 0000 803f
00000080: 0000 803f 0000 803f 0000 803f 0000 803f
00000090: 0000 803f 0000 803f 0000 803f 0000 803f
000000a0: 0000 803f 0000 803f 0000 803f 0000 803f
000000b0: 0000 803f 0000 803f 0000 803f 0000 803f
000000c0: 0000 803f 0000 803f 0000 803f 0000 803f
000000d0: 0000 803f 0000 803f 0000 803f 0000 803f
000000e0: 0000 803f 0000 803f 0000 803f 0000 803f
000000f0: 0000 803f 0000 803f 0000 803f 0000 803f

fc2.weight f4 [128, 68]
-0.048649874 -0.13774759 0.056885093 0.0075463057 -0.011772359 -0.13072306 -0.008698392 -0.06770643
0.019948406 0.005565663 0.010778247 -0.0143171 0.035373647 -0.06627286 0.06703883 -0.05577871
0.030028459 0.022564137 0.028008075 0.05908322 -0.06373713 -0.11103122 0.07070703 -0.0020055752
0.013790748 -0.0240902 -0.002492128 0.06376084 -0.08370421 0.07779763 0.03186426 -0.033387396
0.04191259 0.0688622 -0.10415668 -0.06683963 -0.008374847 0.058430653 -0.07510255 0.011625452
0.010261833 -0.069531284 0.073762655 -0.06396136 0.01128909 -0.01575105 0.016755532 -0.047368202
-0.09012959 -0.007220437 0.0319243 -0.08636896 -0.14651445 -0.0874381 0.05462657 -0.031235173
-0.02768625 0.03561912 0.042195246 -0.03326148 -0.009303522 -0.025412446 -0.00043961368 0.034671996
-0.0006968255 0.0007745974 -0.07907923 -0.031227808 0.062246945 -0.11145722 -0.028642299 -0.10778542
-0.04739302 -0.29172075 0.086471364 -0.015381352 -0.025004514 0.02750356 0.00177849 -0.10284274
-0.19835456 0.088065244 0.06704075 -0.08930967 0.104915544 -0.025387885 0.024905588 0.052904192
0.065888986 -0.09942148 0.059456352 -0.19176081 0.044469215 -0.12865792 -0.0037919446 -0.033474892
-0.036179375 -0.0781521 0.05727217 -0.09648979 0.0029497296 0.044399865 -0.024653846 0.03757347
-0.014238442 -0.15302905 -0.0399834 0.0048298137 -0.06093929 -0.08636666 -0.12866785 -0.04879019
0.06631613 0.008118713 -0.087480396 0.0658112 -0.005352006 0.08468517 -0.06116144 0.08935356
-0.22098812 0.01475515 -0.030494457 0.049270183 -0.18964425 0.14736442 -0.038830455 -0.14625928
0.09946872 -0.10460522 0.043330718 -0.029811056 0.02383237 -0.15214245 -0.18565659 0.06415274
0.025994359 0.18498333 -0.048505876 0.048187077 0.064598955 0.00030569517 -0.043777715 0.057943396
-0.010963632 0.046378445 -0.05816726 -0.13441771 0.04903065 0.05614761 0.008970182 -0.12117058
0.0192769 0.017560221 0.009800085 -0.036612444 -0.0061011976 -0.12435064 -0.049009793 -0.0070539685
-0.020561555 -0.032733023 0.056772057 -0.0863337 0.09717112 -0.029820781 -0.031743918 -0.012806298
-0.074228294 -0.056528233 -0.108688764 0.08447976 0.03855486 -0.085853845 -0.116122656 -0.035833817
-0.08560501 -0.0491621 -0.069863595 -0.0373279 0.0258821 -0.020978555 0.038603555 -0.19330251
0.02672552 -0.01289644 -0.039794486 -0.0051086955 0.05212197 0.06350874 0.047796026 -0.01665559
-0.07748532 -0.054432128 -0.14306201 -0.06663972 -0.12471092 -0.058583144 0.063548274 -0.039385866
-0.13864534 0.115996525 0.048942067 0.11930774 -0.057198297 -0.08599041 -0.04875983 0.012440149
-0.076602116 0.0031614695 -0.0883379 -0.10095358 -0.04941599 -0.008926088 -0.06433639 0.0047542294
0.040236127 -0.09702409 -0.029732794 0.038367655 -0.038429815 0.04047926 0.08158522 0.030262662
0.041182496 -0.05774454 -0.052985847 0.01127047 -0.016877728 0.016646767 0.0006943526 -0.10637069
-0.0064487983 0.013293085 -0.04299126 -0.014800696 -0.14390753 -0.017060887 -0.01798533 0.024425374
-0.030221893 0.043093055 -0.017673565 0.047992453 0.03900623 0.03492533 -0.010236217 0.046511214
-0.11299111 0.061174586 -0.09641709 0.030468289 -0.059111107 0.0447412 -0.07423865 -0.040180728
00000000: 1745 47bd b40d 0dbe 5800 693d 0047 f73b
00000010: dae0 40bc 44dc 05be b383 0ebc aba9 8abd
00000020: d76a a33c 2a60 b63b 3f97 303c 4592 6abc
00000030: f5e3 103d 11ba 87bd a74b 893d 3778 64bd
00000040: 3efe f53c 6dd8 b83c 3171 e53c 3f01 723d
00000050: 9d88 82bd 5664 e3bd d9ce 903d f86f 03bb
00000060: 97f2 613c d058 c5bc f852 23bb 0b95 823d
00000070: 1d6d abbd 5d54 9f3d 1984 023d 39c1 08bd
00000080: 89ac 2b3d a007 8d3d 1950 d5bd 37e3 88bd
00000090: a736 09bc fb54 6f3d 5ecf 99bd ae78 3e3c
000000a0: 3f21 283c 6b66 8ebd e010 973d 2cfe 82bd
000000b0: e0f5 383c 5908 81bc e642 893c 2905 42bd
000000c0: dd95 b8bd 6a99 ecbb 0ec3 023d 36e2 b0bd
000000d0: e207 16be bf12 b3bd 1cc0 5f3d e8e0 ffbc
000000e0: 46ce e2bc 5be5 113d ecd4 2c3d 313d 08bd
000000f0: cd6d 18bc c32d d0bc f37b e6b9 3904 0e3d
00000100: 2bab 36ba 5a0e 4b3a 4bf4 a1bd 76d1 ffbc
00000110: a7f6 7e3d af43 e4bd 41a3 eabc 9abe dcbd
00000120: 2f1f 42bd 6c5c 95be e617 b13d 1102 7cbc
00000130: 44d6 ccbc 254f e13c 391c e93a 379f d2bd
00000140: 751d 4bbe 8d5b b43d a94c 893d fde7 b6bd
00000150: f6dd d63d 41fa cfbc ce06 cc3c 11b2 583d
00000160: cef0 863d 7d9d cbbd 8188 733d f25c 44be
00000170: 5a25 363d e7be 03be 4682 78bb f81c 09bd
00000180: d330 14bd 350e a0bd 3996 6a3d 709c c5bd
00000190: 4050 413b a2dc 353d ddf6 c9bc a4e6 193d
000001a0: 5b48 69bc a6b3 1cbe a2c5 23bd 6a43 9e3b
000001b0: 7a9b 79bd 01e1 b0bd 81c1 03be 39d8 47bd
000001c0: c0d0 873d 5a04 053c ec28 b3bd 06c8 863d
000001d0: e15f afbb 6b6f ad3d 6b84 7abd 00ff b63d
000001e0: b64a 62be 96bf 713c 83cf f9bc 88cf 493d
000001f0: 1a32 42be b3e6 163e af0c 1fbd fec4 15be
00000200: 42b6 cb3d 433b d6bd 8d7b 313d 5136 f4bc
00000210: 1a3c c33c 3bcb 1bbe c31c 3ebe 8362 833d
00000220: 1ff2 d43c 456c 3d3e 19ae 46bd d05f 453d
00000230: 754c 843d b645 a039 4350 33bd 0e56 6d3d
00000240: cea0 33bc 53f7 3d3d cb40 6ebd cca4 09be
00000250: 5dd4 483d 09fb 653d acf7 123c 4828 f8bd
00000260: 97ea 9d3c 74da 8f3c 8990 203c eef6 15bd
00000270: 8eec c7bb 8cab febd 7ebe 48bd fa24 e7bb
00000280: b570 a8bc 1013 06bd d189 683d b9cf b0bd
00000290: a701 c73d b64a f4bc e905 02bd 82d1 51bc
000002a0: 0105 98bd 268a 67bd 3798 debd b903 ad3d
000002b0: b3eb 1d3d 24d4 afbd b7d1 edbd 7bc6 12bd
000002c0: ae51 afbd 335e 49bd a514 8fbd 24e5 18bd
000002d0: b306 d43c 38db abbc c31e 1e3d 18f1 45be
000002e0: 7aef da3c 974b 53bc 8bff 22bd d866 a7bb
000002f0: d97d 553d df10 823d c4c5 433d 4e71 88bc
00000300: a0b0 9ebd 39f4 5ebd d97e 12be 687a 88bd
00000310: 7068 ffbd e1f4 6fbd 9925 823d 1353 21bd
00000320: 0bf9 0dbe 968f ed3d 7a77 483d 9e57 f43d
00000330: c348 6abd bd1b b0bd 63b8 47bd c4d1 4b3c
00000340: 92e1 9cbd a830 4f3b 80ea b4bd c0c0 cebd
00000350: 6c68 4abd ba3e 12bc ccc2 83bd 5ec9 9b3b
00000360: a3ce 243d 91b4 c6bd 3092 f3bc 6727 1d3d
00000370: 9568 1dbd 95cd 253d 2716 a73d 67e9 f73c
00000380: faae 283d 8a85 6cbd b007 59bd c7a7 383c
00000390: 2943 8abc cd5e 883c 3705 363a e0d8 d9bd
000003a0: 7150 d3bb 3dcb 593c 9a17 30bd 9e7e 72bc
000003b0: 7f5c 13be 46c3 8bbc f955 93bc b917 c83c
000003c0: e793 f7bc 5882 303d 27c8 90bc bc93 443d
000003d0: ffc4 1f3d dd0d 0f3d ceb5 27bc 8b82 3e3d
000003e0: e267 e7bd 3492 7a3d 5376 c5bd a298 f93c
000003f0: 7d1e 72bd 8c42 373d 6f0a 98bd 8c94 24bd

fc2.bias f4 [128]
-0.10903283 0.034646723 0.036341593 -0.049070943 -0.08104065 -0.05095442 0.12129624 0.043509778
0.15278512 0.032425158 -0.05697324 0.114838324 -0.005271024 -0.10889071 -0.09083788 -0.066276
-0.1438273 -0.015402219 -0.08931096 0.06547568 0.10406656 0.03652902 -0.042694516 0.0925472
-0.12512895 -0.0018012458 -0.01537417 0.02138945 -0.03890803 0.0778217 0.013267906 0.039958578
-0.02401274 0.034738664 0.109067254 0.04629395 0.008218832 -0.116185784 -0.064214185 -0.014356957
0.053817164 -0.13613886 -0.0921543 0.039332543 0.03158019 -0.053765252 -0.15959255 0.009794048
-0.060248774 0.04306367 0.07477498 -0.015527184 0.09875153 0.13263899 -0.06047598 0.01902022
-0.011881904 0.084021315 0.043559648 -0.05239359 0.03147941 -0.040356804 -0.092448376 0.026215242
-0.098991446 0.09050203 -0.1280057 -0.022780152 -0.01663981 -0.027859999 -0.1315768 0.014445237
0.02034019 -0.1086415 -0.0647555 0.14409076 0.023755442 0.11101665 0.010771019 -0.03167999
-0.07841463 -0.066599764 -0.11881919 0.06672235 0.081030004 -0.07719037 -0.092003256 -0.055417795
0.002979454 -0.0131957205 0.028890086 -0.08404162 -0.051429376 -0.09808555 0.11044373 0.07514935
-0.062569775 0.062142033 0.064863384 0.086022064 0.087032616 -0.05780106 -0.10561326 0.086992376
0.053720064 -0.08582675 0.00027487532 0.037617035 -0.11158609 -0.12740396 -0.046153214 0.0006757588
-0.011309738 0.042342547 -0.1055211 -0.07597904 -0.04243024 0.061557047 -0.12731685 -0.12545553
0.058953524 -0.13789207 -0.06753392 0.05523154 0.028482558 0.0011430203 -0.061145972 0.10067891
00000000: 9b4c dfbd b9e9 0d3d ecda 143d 9dfe 48bd
00000010: a4f8 a5bd 95b5 50bd 2a6a f83d 4f37 323d
00000020: b473 1c3e 3ed0 043d c65c 69bd 5b30 eb3d
00000030: 8eb8 acbb 1802 dfbd 3609 babd b6bb 87bd
00000040: 7747 13be 9759 7cbc aae8 b6bd 1d18 863d
00000050: d920 d53d 749f 153d 72e0 2ebd 6389 bd3d
00000060: ce21 00be c817 ecba f1e3 7bbc ee38 af3c
00000070: 075e 1fbd fc60 9f3d a261 593c 9bab 233d
00000080: 5eb6 c4bc 214a 0e3d a75e df3d ba9e 3d3d
00000090: 48a8 063c d0f2 edbd ba82 83bd 7139 6bbc
000000a0: 636f 5c3d fc67 0bbe 65bb bcbd 291b 213d
000000b0: 3b5a 013d f438 5cbd 3b6c 23be 3777 203c
000000c0: 6bc7 76bd 8863 303d a023 993d bb65 7ebc
000000d0: 3e3e ca3d 84d2 073e a9b5 77bd 4bd0 9b3c
000000e0: 51ac 42bc 5e13 ac3d 9a6b 323d a99a 56bd
000000f0: 8ef0 003d 2d4d 25bd 9355 bdbd 59c1 d63c
00000100: 07bc cabd 2159 b93d ed13 03be 719d babc
00000110: 3650 88bc a73a e4bc 12bc 06be b7ab 6c3c
00000120: 78a0 a63c 6f7f debd 889e 84bd 878c 133e
00000130: c69a c23c b35c e33d ee78 303c e1c2 01bd
00000140: d997 a0bd 7565 88bd 7a57 f3bd baa5 883d
00000150: 0ff3 a53d fc15 9ebd 346c bcbd c5fd 62bd
00000160: f142 433b dd32 58bc e7aa ec3c 031e acbd
00000170: 9ca7 52bd 14e1 c8bd 5330 e23d e7e7 993d
00000180: 9524 80bd a588 7e3d 18d7 843d 562c b03d
00000190: 283e b23d cec0 6cbd c44b d8bd 0f29 b23d
000001a0: 9209 5c3d efc5 afbd 241d 9039 5214 1a3d
000001b0: 3f87 e4bd 2f76 02be 270b 3dbd 6825 313a
000001c0: 7b4c 39bc 616f 2d3d 721b d8bd e69a 9bbd
000001d0: 55cb 2dbd 3e23 7c3d 595f 02be 6a77 00be
000001e0: 4079 713d 9433 0dbe 394f 8abd 783a 623d
000001f0: 4154 e93c 66d1 953a 3374 7abd bf30 ce3d

fc3.weight f4 [1, 128]
0.0016809076 0.0069524082 0.0050985534 0.0010302304 0.00039441648 -0.001693766 0.0027469646 0.005357851
0.0031803004 0.0060685654 0.004602983 0.0010135119 0.0018854882 -0.004263592 -0.00071698317 -0.008273961
-0.0034847765 0.003931978 -0.001153069 -0.006434844 -0.004116744 -0.002551272 -0.017460128 0.0024610588
0.00066065614 0.000673061 0.0009805333 0.0006575194 -0.0028479935 -0.003912998 0.004158465 -0.004053403
-0.017411247 -0.00092143746 0.0046329694 -0.011688322 -0.0029994524 -0.0049708276 -0.003027437 0.002862934
0.0005164035 -0.02074853 -0.007658575 0.020166699 -0.006145459 -0.0032987203 -0.00488438 0.011170449
-0.0029750173 -0.006795263 0.024408283 0.003137381 0.0055794865 0.006129497 -0.0020254878 -0.0021649234
0.0046230815 -0.007061094 0.003385111 -0.008579972 -0.010764904 0.016716173 0.004218354 -0.0083544245
0.0024762428 -0.0037209077 -0.00952814 -0.0027615882 0.003615239 0.006823527 0.004427716 0.004226881
-0.004440953 0.0041102176 -0.00400033 0.0044841035 -0.0017497384 0.003302265 -0.0025311364 0.00084654463
-0.011215452 -0.0030088353 -0.00081070873 -0.0025844031 0.004941878 -0.00361412 -0.009426963 -0.002461362
0.037067544 -0.017508766 -0.0002791384 0.0023172898 -0.004565055 -0.0038267258 -0.020218158 -0.009891499
0.0019464866 0.004502702 -0.0025921033 0.0059571886 0.013573836 0.0026097596 0.011255032 0.008599537
-0.00076987443 0.0021805926 0.00025773956 0.005072885 -0.011291353 -0.004955383 0.00014238285 0.0012447293
-0.012786286 -0.0037905078 0.005998175 -0.001056539 -0.017975824 0.009644663 0.0054399646 -0.011916632
-0.0072939163 -0.0008522989 0.009076682 0.004581529 0.015120336 -0.007659053 -0.0018136194 -0.002928817
00000000: e651 dc3a 07d1 e33b c411 a73b cc08 873a
00000010: afc9 ce39 5b01 deba 6b06 343b e990 af3b
00000020: 966c 503b d1da c63b 9fd4 963b d1d7 843a
00000030: 7c22 f73a 9ab5 8bbb edf3 3bba 828f 07bc
00000040: d960 64bb d2d7 803b 9322 97ba 62db d2bb
00000050: c0e5 86bb 3e33 27bb 8b08 8fbc b749 213b
00000060: e22f 2d3a 5c70 303a 3d85 803a 615d 2c3a
00000070: 67a5 3abb 9b38 80bb bc43 883b 69d2 84bb
00000080: 08a2 8ebc 9f8c 71ba 2ad0 973b 6080 3fbc
00000090: 7692 44bb 53e2 a2bb f767 46bb 10a0 3b3b
000000a0: 415f 073a d2f8 a9bc c9f4 fabb a234 a53c
000000b0: d95f c9bb 582f 58bb 260d a0bb 4204 373c
000000c0: 82f8 42bb ccaa debb e1f3 c73c 859c 4d3b
000000d0: 20d4 b63b f3d9 c83b 0cbe 04bb 63e1 0dbb
000000e0: 387d 973b c060 e7bb bdd8 5d3b 0393 0cbc
000000f0: 485f 30bc 5bf0 883c 1e3a 8a3b ffe0 08bc
00000100: 7648 223b 79da 73bb ea1b 1cbc c3fb 34bb
00000110: a5ed 6c3b e597 df3b 6016 913b a681 8a3b
00000120: 6a85 91bb 01af 863b 3315 83bb 63ef 923b
00000130: 7a57 e5ba d06a 583b 6ce1 25bb a6ea 5d3a
00000140: 04c1 37bc e12f 45bb be85 54ba 175f 29bb
00000150: 7aef a13b dfda 6cbb 8c73 1abc cd4e 21bb
00000160: 23d4 173d 8b6e 8fbc 5259 92b9 acdd 173b
00000170: 7596 95bb cec9 7abb 8da0 a5bc f40f 22bc
00000180: 4121 ff3a 678b 933b 47e0 29bb 8534 c33b
00000190: cb64 5e3c 8008 2b3b 0767 383c 13e5 0c3c
000001a0: 66d1 49ba 46e8 0e3b 3821 8739 723a a63b
000001b0: 5eff 38bc c460 a2bb 9b4c 1539 2f26 a33a
000001c0: 927d 51bc 2b6a 78bb 578c c43b 917b 8aba
000001d0: 0942 93bc a604 1e3c bb41 b23b fa3d 43bc
000001e0: ce01 efbb d06c 5fba 5db6 143c a720 963b
000001f0: 49bb 773c cbf8 fabb f8b6 edba 65f1 3fbb

fcs4.weight f4 [64, 48]
-0.033433363 0.029016308 0.07256103 -0.1695962 -0.06304349 0.19039094 -0.04261013 -0.15781805
0.014355658 -0.059080634 -0.10582552 0.081859946 -0.089660734 0.25631592 -0.035630524 0.08008166
0.06501829 0.085770875 -0.041317236 0.025485048 0.04071019 0.21996808 0.047896963 0.091156155
-0.098230615 0.026421823 0.0036708564 0.14399798 -0.041056957 0.101732604 -0.050184604 0.13425884
-0.0030712574 0.15149331 0.0659361 0.030759303 -0.105004445 0.11586403 0.08290556 -0.051699243
0.1050747 0.13441959 -0.058046013 0.007555082 -0.047740616 0.2554351 -0.01831131 -0.0903756
0.12310534 -0.023305107 -0.083385356 0.11916922 -0.054444943 0.028880667 0.10737059 0.030176133
0.12546302 0.13095891 0.019820938 -0.016118651 -0.037336513 -0.18145901 -0.107616775 -0.109828606
-0.08062458 -0.0759149 0.022109421 -0.067441545 0.09261464 -0.18487668 0.09807134 0.088572845
0.03624209 0.108012974 0.058116842 -0.10707345 -0.121557504 -0.16489202 -0.008908965 0.054251015
0.12574734 0.023518864 0.11038271 0.09247904 0.011774108 0.041023873 -0.057691477 -0.10681939
0.021483438 -0.1060304 0.07622942 0.060354106 0.11304278 -0.029130163 -0.12543957 0.040886015
0.1150166 0.07383281 -0.075439185 0.11537569 -0.039605133 -0.1676081 0.039556373 0.048108682
-0.01628391 0.33115107 -0.018244857 -0.053489354 -0.0405182 -0.10301154 0.022345869 0.045498792
-0.023287758 0.13094275 0.03547029 -0.10030048 0.0044781836 -0.20496348 0.04198505 -0.07600074
0.15202047 0.033957426 0.012693357 0.1511613 0.072271004 -0.125687 0.013399625 0.12083595
0.15094902 0.023668204 -0.03990414 0.019986564 -0.06583274 -0.31809 0.079058796 -0.0002662283
-0.053819273 -0.052150413 -0.10141746 0.10844957 -0.10584251 -0.020025743 -0.13083263 0.16555889
0.08449816 0.15566121 -0.099538594 0.13133392 0.024625897 0.014704694 0.061516825 -0.06182252
0.17878161 -0.025193525 0.043452464 -0.07185741 0.015274692 -0.005315024 0.002224288 0.022939391
0.04574283 0.15741143 0.08021113 -0.035687074 -0.0030486556 -0.042679876 -0.12708549 -0.003633162
0.06314084 0.1770278 0.073261626 -0.06449438 -0.020655457 -0.010939338 -0.08192525 0.12997434
0.02254773 0.1263356 0.014323735 -0.10474726 0.06327992 0.079427525 -0.06868971 -0.06251732
0.068607174 -0.013888024 -0.07186078 -0.05573807 -0.04133119 -0.06966271 -0.02024802 -0.04845103
0.02251431 0.046909623 -0.059769157 -0.12140597 0.02524136 0.028504215 -0.005109882 -0.119616576
-0.10853892 -0.09223903 0.12448741 0.15070204 0.028379211 0.1244345 -0.047731902 -0.001731571
-0.013657276 -0.04231414 -0.066671275 0.11033828 0.1391741 0.23895057 0.059499495 0.041359216
0.09307058 -0.03465018 -0.024421185 0.10540999 0.02366453 -0.06839459 0.031228384 -0.048482943
0.08274627 -0.032721717 -0.058792055 -0.12445111 -0.04466829 0.020317433 -0.07938868 -0.18640988
0.08960369 0.03449867 -0.0965645 -0.28356826 -0.0026352408 0.19011538 0.14319196 -0.32606494
-0.08532455 0.04837318 -0.041342363 -0.078986235 -0.07612695 -0.15429953 -0.04624471 -0.07899835
-0.085325085 0.01724291 -0.085273944 -0.11368748 -0.057221305 -0.1300277 0.07812057 0.065052465
00000000: 6cf1 08bd 9cb3 ed3c e19a 943d a0aa 2dbe
00000010: f21c 81bd d8f5 423e f687 2ebd 0e9b 21be
00000020: fe33 6b3c 89fe 71bd 0dbb d8bd 30a6 a73d
00000030: 0ca0 b7bd d73b 833e 50f1 11bd da01 a43d
00000040: 4f28 853d a4a8 af3d 433c 29bd 05c6 d03c
00000050: babf 263d 503f 613e 9b2f 443d 14b0 ba3d
00000060: 222d c9bd 9472 d83c c092 703b 3574 133e
00000070: 572b 28bd 2f59 d03d 5f8e 4dbd 267b 093e
00000080: 2647 49bb 1021 1b3e 8209 873d effa fb3c
00000090: 920c d7bd 1f4a ed3d 64ca a93d 96c2 53bd
000000a0: 6831 d73d 4aa5 093e a8c1 6dbd 9f90 f73b
000000b0: aa8b 43bd 64c8 823e 9a01 96bc d816 b9bd
000000c0: a71e fc3d 5aea bebc f1c5 aabd fe0e f43d
000000d0: a901 5fbd 2697 ec3c 1de5 db3d f033 f73c
000000e0: 6179 003e 181a 063e 855f a23c 430b 84bc
000000f0: 2cee 18bd 64d0 39be 2f66 dcbd d2ed e0bd
00000100: 801e a5bd 4579 9bbd d11e b53c cb1e 8abd
00000110: bfac bd3d 5050 3dbe a0d9 c83d ae65 b53d
00000120: 9672 143d e835 dd3d ed0b 6e3d 5349 dbbd
00000130: 24f3 f8bd 74d9 28be e8f6 11bc 5036 5e3d
00000140: e9c3 003e a2aa c03c 5510 e23d a765 bd3d
00000150: 30e8 403c a608 283d e64d 6cbd 20c4 dabd
00000160: 09fe af3c 7726 d9bd 2c1e 9c3d de35 773d
00000170: f982 e73d 61a2 eebc 3b73 00be 1878 273d
00000180: d38d eb3d a835 973d dc7f 9abd 174a ec3d
00000190: fe38 22bd 75a1 2bbe dd05 223d 9c0d 453d
000001a0: d665 85bc a28c a93e 3d76 95bc a717 5bbd
000001b0: 69f6 25bd b7f7 d2bd af0e b73c f15c 3a3d
000001c0: f8c5 bebc db15 063e 4b49 113d 576a cdbd
000001d0: babd 923b f2e1 51be 84f8 2b3d 47a6 9bbd
000001e0: 41ab 1b3e f116 0b3d ccf7 4f3c 07ca 1a3e
000001f0: d202 943d 18b4 00be 1a8a 5b3c d778 f73d
00000200: 6192 1a3e d2e3 c13c 8672 23bd ddba a33c
00000210: 51d3 86bd b1dc a2be 94e9 a13d 8f94 8bb9
00000220: 9971 5cbd ac9b 55bd f5b3 cfbd cf1a de3d
00000230: f5c3 d8bd 070d a4bc fdf8 05be 4588 293e
00000240: 5f0d ad3d a765 1f3e e4da cbbd 667c 063e
00000250: 40bc c93c f5eb 703c 11f9 7b3d 9c39 7dbd
00000260: 8712 373e a762 cebc 36fb 313d fa29 93bd
00000270: b442 7a3c a729 aebb 5cc5 113b 64eb bb3c
00000280: d55c 3b3d 7630 213e bc45 a43d 9c2c 12bd
00000290: f4cb 47bb 18d1 2ebd b322 02be 581a 6ebb
000002a0: fc4f 813d c746 353e 310a 963d a115 84bd
000002b0: a235 a9bc e93a 33bc 6dc8 a7bd fe17 053e
000002c0: 04b6 b83c 1f5e 013e 19ae 6a3c bb85 d6bd
000002d0: e798 813d e6aa a23d 31ad 8cbd 1509 80bd
000002e0: eb81 8c3d 988a 63bc bf2b 93bd 9a4d 64bd
000002f0: e54a 29bd 53ab 8ebd 2ddf a5bc 9674 46bd
00000300: ee6f b83c 4e24 403d 81d0 74bd b1a3 f8bd
00000310: f8c6 ce3c ac81 e93c cc70 a7bb 89f9 f4bd
00000320: a749 debd d1e7 bcbd 41f3 fe3d a351 1a3e
00000330: 857b e83c 84d7 fe3d 8782 43bd e2f5 e2ba
00000340: c4c2 5fbc 9751 2dbd f38a 88bd 09f9 e13d
00000350: a883 0e3e 75af 743e beb5 733d 4868 293d
00000360: ca9b be3d 59ed 0dbd f00e c8bc 31e1 d73d
00000370: 1edc c13c 7612 8cbd abd2 ff3c 0d96 46bd
00000380: e076 a93d 3507 06bd f0cf 70bd 39e0 febd
00000390: 19f6 36bd bf70 a63c 8896 a2bd 3be2 3ebe
000003a0: 2482 b73d 7a4e 0d3d 9cc3 c5bd dc2f 91be
000003b0: 01b4 2cbb 9bad 423e eaa0 123e fcf1 a6be
000003c0: a3be aebd f522 463d 9c56 29bd 89c3 a1bd
000003d0: 72e8 9bbd b200 1ebe 186b 3dbd e3c9 a1bd
000003e0: ebbe aebd 0141 8d3c 1ba4 aebd fbd4 e8bd
000003f0: e360 6abd fb25 05be adfd 9f3d 3a3a 853d

fcs4.bias f4 [64]
-0.062878 0.03923963 0.1305751 0.073196046 0.030915657 -0.10824035 -0.021080429 -0.07916614
-0.059593026 0.09023996 -0.16899489 -0.046794306 0.023229234 0.04457978 -0.13413946 -0.12730156
0.047871314 -0.035966188 -0.019611103 -0.17350128 -0.19130482 0.0054840553 -0.00260329 0.11318108
-0.10770752 -0.08400984 0.007890774 -0.02619179 -0.122107066 0.059166227 0.002326916 -0.2034075
0.038712062 -0.13585404 0.103698365 0.1051122 -0.013533845 0.09496145 0.09864503 0.043258913
-0.004270087 0.06285824 -0.12593926 -0.060280226 0.041750982 -0.12136784 0.030087484 0.122039266
-0.08150766 -0.114367746 0.10293375 0.0680034 -0.064332396 0.075116426 -0.081547014 -0.049354225
-0.10976949 0.03366834 0.056841664 0.039039917 0.10734955 -0.080980726 0.07819938 -0.15251042
00000000: 2ec6 80bd bcb9 203d 7bb5 053e cfe7 953d
00000010: d542 fd3c 1ead ddbd ddb0 acbc db21 a2bd
00000020: d117 74bd bacf b83d ff0c 2dbe 63ab 3fbd
00000030: 3c4b be3c 4a99 363d db5b 09be 575b 02be
00000040: b614 443d 4851 13bd 77a7 a0bc 52aa 31be
00000050: 69e5 43be 97b3 b33b f59b 2abb 7bcb e73d
00000060: c395 dcbd 5a0d acbd 4e48 013c 2a90 d6bc
00000070: 4513 fabd 4958 723d 2c7f 183b 0e4a 50be
00000080: 8a90 1e3d 521d 0bbe cf5f d43d 1145 d73d
00000090: 0fbd 5dbc 267b c23d 6806 ca3d 4230 313d
000000a0: 16ec 8bbb d2bb 803d 39f6 00be 66e8 76bd
000000b0: 1403 2b3d b48f f8bd 077a f63c b9ef f93d
000000c0: 7ded a6bd a339 eabd eece d23d 5e45 8b3d
000000d0: b4c0 83bd a4d6 993d 1f02 a7bd a827 4abd
000000e0: d4ce e0bd d0e7 093d ced2 683d 52e8 1f3d
000000f0: 15da db3d 39d9 a5bd ff26 a03d b12b 1cbe

bn2.weight f4 [64]
0.55325264 0.103327096 0.9482284 0.048787296 0.24631941 0.51868886 0.36797 0.07740313
0.78010905 0.16578329 0.438038 0.7018639 0.20970392 0.9848078 0.44310975 0.9389011
0.66849035 0.26795155 0.7725306 0.793547 0.32940537 0.29619223 0.5564086 0.6668498
0.63238436 0.9982889 0.3783313 0.5231893 0.4327817 0.21107781 0.7145934 0.024315715
0.90146005 0.18762374 0.0060070157 0.7968466 0.9478978 0.78773963 0.7468736 0.18457305
0.9006433 0.23505056 0.21156532 0.25923336 0.958615 0.3512885 0.4596417 0.08725566
0.56546557 0.2759145 0.09797335 0.5040233 0.03298968 0.9823824 0.2890088 0.69483364
0.114162326 0.04485011 0.39545697 0.7009958 0.13791311 0.37076318 0.80642796 0.9732435
00000000: f7a1 0d3f 289d d33d 19bf 723f 30d5 473d
00000010: 283b 7c3e cbc8 043f 9066 bc3e 8885 9e3d
00000020: 3ab5 473f 18c3 293e 8446 e03e 5aad 333f
00000030: a0bc 563e 5d1c 7c3f 48df e23e d35b 703f
00000040: 2f22 2b3f f230 893e 91c4 453f e525 4b3f
00000050: d2a7 a83e 82a6 973e cb70 0e3f abb6 2a3f
00000060: f1e3 213f dd8f 7f3f a4b4 c13e bcef 053f
00000070: 9095 dd3e c824 583e 98ef 363f c031 c73c
00000080: 16c6 663f 7020 403e 80d6 c43b 24fe 4b3f
00000090: 6ea9 723f 4ea9 493f 1c33 3f3f b800 3d3e
000000a0: 8f90 663f 18b1 703e 94a4 583e 3cba 843e
000000b0: cb67 753f 16dc b33e 2856 eb3e 18b3 b23d
000000c0: 5ac2 103f aa44 8d3e 40a6 c83d ac07 013f
000000d0: 3020 073d 6a7d 7b3f f6f8 933e 9ee0 313f
000000e0: f0cd e93d c0b4 373d 5679 ca3e 7674 333f
000000f0: 1839 0d3e acd4 bd3e 1072 4e3f 7c26 793f

bn2.bias f4 [64]
0.0 0.0 0.0 0.0 0.0 0.0 0.0 0.0
0.0 0.0 0.0 0.0 0.0 0.0 0.0 0.0
0.0 0.0 0.0 0.0 0.0 0.0 0.0 0.0
0.0 0.0 0.0 0.0 0.0 0.0 0.0 0.0
0.0 0.0 0.0 0.0 0.0 0.0 0.0 0.0
0.0 0.0 0.0 0.0 0.0 0.0 0.0 0.0
0.0 0.0 0.0 0.0 0.0 0.0 0.0 0.0
0.0 0.0 0.0 0.0 0.0 0.0 0.0 0.0
00000000: 0000 0000 0000 0000 0000 0000 0000 0000
00000010: 0000 0000 0000 0000 0000 0000 0000 0000
00000020: 0000 0000 0000 0000 0000 0000 0000 0000
00000030: 0000 0000 0000 0000 0000 0000 0000 0000
00000040: 0000 0000 0000 0000 0000 0000 0000 0000
00000050: 0000 0000 0000 0000 0000 0000 0000 0000
00000060: 0000 0000 0000 0000 0000 0000 0000 0000
00000070: 0000 0000 0000 0000 0000 0000 0000 0000
00000080: 0000 0000 0000 0000 0000 0000 0000 0000
00000090: 0000 0000 0000 0000 0000 0000 0000 0000
000000a0: 0000 0000 0000 0000 0000 0000 0000 0000
000000b0: 0000 0000 0000 0000 0000 0000 0000 0000
000000c0: 0000 0000 0000 0000 0000 0000 0000 0000
000000d0: 0000 0000 0000 0000 0000 0000 0000 0000
000000e0: 0000 0000 0000 0000 0000 0000 0000 0000
000000f0: 0000 0000 0000 0000 0000 0000 0000 0000

bn2.running_mean f4 [64]
0.0 0.0 0.0 0.0 0.0 0.0 0.0 0.0
0.0 0.0 0.0 0.0 0.0 0.0 0.0 0.0
0.0 0.0 0.0 0.0 0.0 0.0 0.0 0.0
0.0 0.0 0.0 0.0 0.0 0.0 0.0 0.0
0.0 0.0 0.0 0.0 0.0 0.0 0.0 0.0
0.0 0.0 0.0 0.0 0.0 0.0 0.0 0.0
0.0 0.0 0.0 0.0 0.0 0.0 0.0 0.0
0.0 0.0 0.0 0.0 0.0 0.0 0.0 0.0
00000000: 0000 0000 0000 0000 0000 0000 0000 0000
00000010: 0000 0000 0000 0000 0000 0000 0000 0000
00000020: 0000 0000 0000 0000 0000 0000 0000 0000
00000030: 0000 0000 0000 0000 0000 0000 0000 0000
00000040: 0000 0000 0000 0000 0000 0000 0000 0000
00000050: 0000 0000 0000 0000 0000 0000 0000 0000
00000060: 0000 0000 0000 0000 0000 0000 0000 0000
00000070: 0000 0000 0000 0000 0000 0000 0000 0000
00000080: 0000 0000 0000 0000 0000 0000 0000 0000
00000090: 0000 0000 0000 0000 0000 0000 0000 0000
000000a0: 0000 0000 0000 0000 0000 0000 0000 0000
000000b0: 0000 0000 0000 0000 0000 0000 0000 0000
000000c0: 0000 0000 0000 0000 0000 0000 0000 0000
000000d0: 0000 0000 0000 0000 0000 0000 0000 0000
000000e0: 0000 0000 0000 0000 0000 0000 0000 0000
000000f0: 0000 0000 0000 0000 0000 0000 0000 0000

bn2.running_var f4 [64]
1.0 1.0 1.0 1.0 1.0 1.0 1.0 1.0
1.0 1.0 1.0 1.0 1.0 1.0 1.0 1.0
1.0 1.0 1.0 1.0 1.0 1.0 1.0 1.0
1.0 1.0 1.0 1.0 1.0 1.0 1.0 1.0
1.0 1.0 1.0 1.0 1.0 1.0 1.0 1.0
1.0 1.0 1.0 1.0 1.0 1.0 1.0 1.0
1.0 1.0 1.0 1.0 1.0 1.0 1.0 1.0
1.0 1.0 1.0 1.0 1.0 1.0 1.0 1.0
00000000: 0000 803f 0000 803f 0000 803f 0000 803f
00000010: 0000 803f 0000 803f 0000 803f 0000 803f
00000020: 0000 803f 0000 803f 0000 803f 0000 803f
00000030: 0000 803f 0000 803f 0000 803f 0000 803f
00000040: 0000 803f 0000 803f 0000 803f 0000 803f
00000050: 0000 803f 0000 803f 0000 803f 0000 803f
00000060: 0000 803f 0000 803f 0000 803f 0000 803f
00000070: 0000 803f 0000 803f 0000 803f 0000 803f
00000080: 0000 803f 0000 803f 0000 803f 0000 803f
00000090: 0000 803f 0000 803f 0000 803f 0000 803f
000000a0: 0000 803f 0000 803f 0000 803f 0000 803f
000000b0: 0000 803f 0000 803f 0000 803f 0000 803f
000000c0: 0000 803f 0000 803f 0000 803f 0000 803f
000000d0: 0000 803f 0000 803f 0000 803f 0000 803f
000000e0: 0000 803f 0000 803f 0000 803f 0000 803f
000000f0: 0000 803f 0000 803f 0000 803f 0000 803f

fc5.weight f4 [128, 68]
0.013211077 0.099310674 -0.09492681 0.009520484 0.016931653 -0.10205584 -0.042833425 -0.11718432
-0.09918707 0.040847298 -0.056241807 0.053724937 0.012713591 -0.11546871 -0.03060837 -0.00076453167
0.043217387 -0.051006414 -0.11824921 -0.03326652 -0.009145413 0.07185151 0.06494504 0.044140976
0.01077112 0.017492618 0.09130043 -0.085536085 0.011976827 0.04583584 0.07025582 0.022861723
-0.09011441 -0.11499159 0.036415078 0.055728614 0.23220542 -0.03216052 -0.036336903 0.054080777
-0.003005786 -0.0005107901 -0.02240728 -0.180021 -0.008392362 -0.040032674 0.054169025 -0.014537469
0.039612446 0.03371326 0.027517589 -0.18419608 -0.015859902 -0.0128568215 -0.110604145 0.08710344
0.054666657 -0.00023741406 -0.07561544 0.023972243 -0.0017634569 -0.027610732 -0.14013414 0.012877637
0.15860763 -0.044560034 0.24224956 0.12547682 0.043701075 -0.018776124 0.06553992 -0.122909136
0.01421189 -0.14864327 0.08225039 -0.08951871 -0.09451751 0.030250518 -0.050615776 -0.0010679918
-0.06366416 -0.09278668 0.13020301 -0.00043737495 -0.020311128 -0.12833105 -0.034802835 0.00070322154
0.02850589 -0.013077648 0.037619453 0.0155196795 0.036908325 -0.092029594 0.028719362 -0.08327122
-0.0007893763 -0.04434841 0.09535078 -0.06306979 -0.10198722 -0.03504776 -0.031753857 0.036447857
0.016491393 -0.022037497 -0.02467933 0.054079905 0.023301147 -0.021454426 0.0124683175 0.038077824
-0.04444973 -0.08032322 -0.09976002 -0.03795805 -0.024191843 0.11587336 0.050995436 -0.073640145
-0.09153844 0.011583575 -0.0056115943 -0.17727755 0.013610599 -0.072817005 0.047654778 -0.022773562
0.06378215 -0.016810102 -0.06815233 -0.051205944 0.10347462 -0.11211268 0.032466426 -0.08506524
-0.008691868 -0.05837086 -0.08502278 0.03559175 0.05049673 -0.031414777 -0.08390161 -0.027661035
-0.06183349 0.05264649 0.030387152 -0.034546707 -0.050583135 0.0046346947 0.012346154 -0.010309867
0.028546063 0.022138482 0.068603985 0.057724822 -0.11220723 -0.027135907 0.021136478 -0.017876597
-0.100881055 0.039135627 0.002832204 -0.024935678 -0.043165505 -0.09353759 -0.053771373 0.019859795
-0.06309437 0.022204543 0.005799345 0.015220129 0.039178614 -0.073242486 0.013240559 -0.021623982
-0.025615735 -0.03198678 0.007852622 -0.055736333 0.07705326 -0.0076813484 -0.110236995 0.040162634
-0.027047647 0.051786248 -0.0436987 0.009666486 0.04895567 -0.022756936 -0.03903314 -0.038002234
0.060141835 0.03768378 -0.06570704 -0.03760823 -0.001645928 0.04702268 -0.07344404 0.044598952
0.032887474 0.10071427 0.004347144 0.039229825 -0.023355968 0.08501857 0.004743283 -0.046779122
-0.080112986 0.038056657 0.007247514 -0.010508058 -0.013810937 -0.004102273 -0.027302152 0.062898956
-0.114898406 0.029632337 -0.009326689 0.036947682 0.016137615 -0.019954896 -0.13159129 0.05949037
-0.072674006 0.054662455 -0.084623635 0.03537812 -0.05273559 0.0030830998 0.07631418 -0.024915094
0.052683752 0.030256178 0.029200196 0.007156162 0.044069473 0.012689095 0.013543924 -0.1097884
-0.01309967 -0.08221235 -0.011154097 -0.014040734 -0.06938752 -0.0724181 -0.083717026 -0.12536184
-0.03432811 0.012651181 0.029299803 0.022778653 0.07458957 0.026301948 0.012255175 -0.08545538
00000000: 4673 583c 6563 cb3d fd68 c2bd cefb 1b3c
00000010: 40b4 8a3c a702 d1bd 1a72 2fbd 55fe efbd
00000020: 9722 cbbd 7f4f 273d cf5d 66bd ae0e 5c3d
00000030: aa4c 503c dc7a ecbd 68be fabc da6a 48ba
00000040: b704 313d 1aec 50bd a42c f2bd 7942 08bd
00000050: a4d6 15bc e226 933d e801 853d 2bcd 343d
00000060: 5a79 303c ae4c 8f3c b8fb ba3d 8b2d afbd
00000070: 743a 443c 5dbe 3b3d 49e2 8f3d 8248 bb3c
00000080: e78d b8bd b680 ebbd fa27 153d b043 643d
00000090: 42c7 6d3e c0ba 03bd 01d6 14bd ce83 5d3d
000000a0: b9fc 44bb 8be6 05ba 798f b7bc 6d57 38be
000000b0: 1e80 09bc 4df9 23bd 57e0 5d3d 902e 6ebc
000000c0: a940 223d ea16 0a3d 916c e13c e69d 3cbe
000000d0: a0ec 81bc 6ba5 52bc 6d84 e2bd 4a63 b23d
000000e0: 25ea 5f3d 5af2 78b9 45dc 9abd 7061 c43c
000000f0: cb23 e7ba e72f e2bc 537f 0fbe b9fc 523c
00000100: 0a6a 223e 9584 36bd 4510 783e ff7c 003e
00000110: e6ff 323d 63d0 99bc cb39 863d c9b7 fbbd
00000120: fdd8 683c f135 18be e472 a83d 9655 b7bd
00000130: 6592 c1bd efcf f73c 7d52 4fbd dcfb 8bba
00000140: 5b62 82bd f106 bebd f053 053e 794f e5b9
00000150: 8663 a6bc 3769 03be 6b8d 0ebd 6658 383a
00000160: 2f85 e93c a243 56bc db16 1a3d 4146 7e3c
00000170: 2f2d 173d 037a bcbd de44 eb3c 1a8a aabd
00000180: 26ee 4eba aea6 35bd 4547 c33d bc2a 81bd
00000190: adde d0bd 3d8e 0fbd 5510 02bd 594a 153d
000001a0: f518 873c fb87 b4bc 4e2c cabc e482 5d3d
000001b0: 0ce2 be3c 31c1 afbc ea47 4c3c 7ef7 1b3d
000001c0: ec10 36bd 8080 a4bd fb4e ccbd e679 1bbd
000001d0: f92d c6bc 034f ed3d 97e0 503d a5d0 96bd
000001e0: 8178 bbbd 09c9 3d3c 77e1 b7bb 3f88 35be
000001f0: fdfe 5e3c 1521 95bd a831 433d 9f8f babc
00000200: 37a0 823d 57b5 89bc 7393 8bbd 53bd 51bd
00000210: 80ea d33d 559b e5bd 84fb 043d af36 aebd
00000220: 5668 0ebc 4816 6fbd 6c20 aebd a8c8 113d
00000230: a9d5 4e3d c8ac 00bd 9bd4 abbd 6599 e2bc
00000240: 1d45 7dbd d9a3 573d 7aee f83c d980 0dbd
00000250: 4330 4fbd a3de 973b 8647 4a3c b7ea 28bc
00000260: 6fd9 e93c c35b b53c 3f80 8c3d dd70 6c3d
00000270: e7cc e5bd 1f4c debc 6826 ad3c f171 92bc
00000280: ba9a cebd ae4c 203d 809c 393b e845 ccbc
00000290: 50ce 30bd a390 bfbd 5f3f 5cbd 02b1 a23c
000002a0: 9f37 81bd 4de6 b53c 6f08 be3b d95d 793c
000002b0: c179 203d 2800 96bd eeee 583c c724 b1bc
000002c0: 17d8 d1bc 9204 03bd 49a8 003c c84b 64bd
000002d0: 19ce 9d3d d2b3 fbbb efc3 e1bd 9381 243d
000002e0: 0793 ddbc d11d 543d 68fd 32bd 2e60 1e3c
000002f0: be85 483d c16c babc 37e1 1fbd 3ba8 1bbd
00000300: 4957 763d 4f5a 1a3d 6a91 86bd 160b 1abd
00000310: 2ebc d7ba db9a 403d d469 96bd 64ad 363d
00000320: 04b5 063d 4843 ce3d 7d72 8e3b 74af 203d
00000330: 0455 bfbc 371e ae3d 8b6d 9b3b 779b 3fbd
00000340: 4712 a4bd 4ce1 1b3d 8e7c ed3b fd29 2cbc
00000350: 4547 62bc 5c6c 86bb c3a8 dfbc 2bd1 803d
00000360: db4f ebbd 84bf f23c f8ce 18bc 7456 173d
00000370: 0833 843c 7378 a3bc debf 06be 2dac 733d
00000380: 1cd6 94bd bde5 5f3d 284f adbd a6e8 103d
00000390: 4601 58bd d50d 4a3b 9c4a 9c3d bd1a ccbc
000003a0: ebca 573d cedb f73c 4035 ef3c 3d7e ea3b
000003b0: 3182 343d ece5 4f3c 56e7 5d3c bed8 e0bd
000003c0: 00a0 56bc f35e a8bd acbf 36bc 1b0b 66bc
000003d0: 0b1b 8ebd f14f 94bd d573 abbd db5e 00be
000003e0: a29b 0cbd e646 4f3c 2406 f03c 4c9a ba3c
000003f0: 6bc2 983d 2f77 d73c eec9 483c 3b03 afbd

fc5.bias f4 [128]
0.057522863 0.028558217 -0.012345145 -0.08014494 0.027256416 0.059491105 -0.13854529 -0.11508222
0.00084735616 -0.1234453 -0.09947794 -0.021703953 -0.00015267242 -0.11988194 0.050609335 -0.074275225
0.08189489 -0.05427859 -0.12577222 -0.05935718 -0.15564522 0.02473563 0.0023422295 0.09904133
0.05373369 0.12645474 0.049315445 0.084430344 0.10431821 0.05626301 0.00949854 0.018862654
-0.10452811 0.045841012 -0.055866458 0.06392764 0.036558494 -0.046025623 -0.07046201 -0.006476317
-0.032946654 0.07169828 -0.034785986 0.0118706515 0.04664262 0.01327319 -0.023577088 -0.017406432
-0.10823989 -0.06739997 0.039721135 0.010711405 -0.11110581 -0.052010644 -0.08998696 -0.08138114
-0.09957271 0.011601136 -0.038125683 0.03228144 0.08191957 -0.11276911 -0.12089415 -0.101293564
0.01786876 0.07360146 -0.015874151 0.015466136 -0.013721865 0.10683859 -0.032546002 -0.10958441
-0.056022584 -0.14163063 -0.08188897 -0.084273905 0.044680882 0.06988172 -0.00486443 -0.07692471
0.056723338 0.024007866 0.06609264 0.04000507 -0.031638563 0.090584174 -0.096346684 -0.09665655
-0.038474858 0.116343826 0.001990844 0.071195744 0.12330686 0.08158891 -0.06214394 -0.03666906
-0.14673144 -0.078724794 -0.029606733 -0.1333937 -0.05904365 -0.020625815 -0.121625535 -0.07741439
0.11631166 -0.13817623 0.06010062 -0.04156611 -0.046316534 -0.10344797 -0.09881841 -0.10975163
0.061187018 0.047076233 -0.035631835 0.106103644 0.042986482 -0.06871692 -0.008662937 0.06639261
-0.01521324 -0.08110676 -0.09150951 -0.09377703 -0.056145594 0.07397809 0.012775728 -0.0969354
00000000: 189d 6b3d ecf2 e93c 4b43 4abc 0823 a4bd
00000010: d948 df3c f2ac 733d d1de 0dbe 3ab0 ebbd
00000020: 1c21 5e3a e4d0 fcbd 17bb cbbd 7dcc b1bc
00000030: b116 20b9 aa84 f5bd bc4b 4f3d 9c1d 98bd
00000040: 82b8 a73d 3a53 5ebd 6fca 00be 8420 73bd
00000050: 7661 1fbe 60a2 ca3c 1780 193b 2ed6 ca3d
00000060: dc17 5c3d 5a7d 013e fefe 493d d1e9 ac3d
00000070: c9a4 d53d 0b74 663d c49f 1b3c da85 9a3c
00000080: d512 d6bd c9c3 3b3d 3ad4 64bd 7fec 823d
00000090: 5cbe 153d 5d85 3cbd 634e 90bd 4937 d4bb
000000a0: 12f3 06bd 8cd6 923d c07b 0ebd 1f7d 423c
000000b0: 550c 3f3d cb77 593c bd24 c1bc ef97 8ebc
000000c0: e0ac ddbd ff08 8abd a1b2 223d e47e 2f3c
000000d0: 718b e3bd 1d09 55bd 154b b8bd 28ab a6bd
000000e0: c7ec cbbd b112 3e3c ad29 1cbd 8b39 043d
000000f0: 73c5 a73d 7ef3 e6bd 5a97 f7bd 0073 cfbd
00000100: 8161 923c 5dbc 963d 820a 82bc ad65 7d3c
00000110: acd1 60bc 31ce da3d f54e 05bd cb6d e0bd
00000120: f077 65bd 9f07 11be 68b5 a7bd cc97 acbd
00000130: 4d03 373d 261e 8f3d cc65 9fbb b48a 9dbd
00000140: bb56 683d 25ac c43c 945b 873d 5bdc 233d
00000150: 7097 01bd 3284 b93d 6951 c5bd dff3 c5bd
00000160: d097 1dbd ac45 ee3d d278 023b 13cf 913d
00000170: 4f88 fc3d 1618 a73d a58a 7ebd 4c32 16bd
00000180: c440 16be 773a a1bd d289 f2bc 5c98 08be
00000190: c1d7 71bd 78f7 a8bc cf16 f9bd 708b 9ebd
000001a0: cf34 ee3d 127e 0dbe 112c 763d 3a41 2abd
000001b0: 68b6 3dbd 87dc d3bd 4e61 cabd 76c5 e0bd
000001c0: 3d9f 7a3d 02d3 403d b0f2 11bd de4c d93d
000001d0: 9812 303d 75bb 8cbd feee 0dbc d9f8 873d
000001e0: f440 79bc 4d1b a6bd 5769 bbbd 2c0e c0bd
000001f0: ecf8 65bd d381 973d 4951 513c 1186 c6bd
